Reconfigured FPGA and RPC runtime in 0.00s!
x0---------- [[ … x1---------- [[0. 0. 1. 1. 0. 0. 0. 0. 0. 0. 1. 0. 0. 0. 0. 1. 1. 1. 1. 1. 1. 0. 0. 0.
  0. 0. 1. 0. 0. 1. 0. 0.]
 [1. 1. 0. 0. 1. 0. 0. 0. 1. 1. 1. 1. 1. 0. 1. 1. 0. 1. 0. 0. 1. 1. 0. 0.
  1. 1. 1. 0. 1. 0. 1. 0.]
 [1. 1. 1. 0. 0. 1. 0. 1. 1. 1. 1. 1. 0. 0. 1. 0. 1. 1. 1. 0. 1. 1. 0. 0.
  1. 1. 1. 1. 1. 0. 0. 1.]
 [1. 1. 0. 0. 1. 1. 1. 1. 1. 0. 0. 0. 1. 0. 0. 0. 0. 1. 1. 1. 1. 1. 0. 1.
  1. 1. 0. 1. 0. 0. 0. 0.]
 [1. 0. 1. 0. 0. 1. 0. 0. 1. 1. 0. 0. 0. 1. 0. 0. 1. 0. 0. 0. 1. 0. 0. 0.
  1. 1. 0. 1. 0. 1. 0. 1.]
 [0. 0. 0. 1. 0. 0. 1. 1. 0. 0. 1. 1. 0. 0. 1. 1. 1. 0. 1. 0. 1. 1. 0. 0.
  0. 1. 1. 1. 1. 1. 0. 1.]
 [0. 1. 1. 0. 0. 1. 1. 0. 1. 0. 1. 0. 1. 1. 0. 0. 1. 0. 1. 0. 0. 1. 1. 0.
  0. 0. 0. 0. 0. 0. 0. 0.]
 [1. 0. 1. 1. 0. 1. 0. 0. 1. 0. 1. 0. 0. 1. 0. 0. 1. 0. 0. 1. 1. 1. 0. 0.
  1. 1. 0. 0. 1. 1. 1. 0.]
 [0. 0. 0. 1. 0. 0. 0. 1. 0. 0. 1. 0. 1. 1. 0. 1. 1. 0. 0. 0. 1. 1. 0. 0.
  0. 1. 0. 1. 1. 0. 1. 1.]
 [1. 1. 1. 0. 0. 1. 1. 1. 0. 1. 0. 1. 0. 0. 1. 1. 1. 0. 1. 0. 0. 0. 0. 1.
  0. 0. 1. 0. 1. 1. 0. 0.]
 [1. 0. 1. 1. 1. 1. 1. 1. 0. 1. 0. 1. 1. 0. 0. 0. 1. 0. 0. 1. 0. 0. 1. 1.
  0. 0. 1. 1. 0. 1. 0. 1.]
 [1. 0. 1. 0. 1. 0. 1. 0. 1. 0. 1. 1. 1. 1. 1. 1. 1. 1. 1. 1. 1. 0. 0. 0.
  0. 1. 0. 0. 0. 1. 0. 0.]
 [1. 0. 1. 0. 1. 0. 0. 1. 1. 1. 1. 1. 0. 0. 0. 0. 1. 1. 0. 1. 0. 0. 1. 1.
  0. 1. 1. 1. 0. 0. 0. 1.]
 [0. 1. 1. 0. 1. 1. 1. 1. 1. 1. 0. 1. 1. 1. 0. 1. 1. 1. 1. 0. 0. 0. 0. 1.
  1. 0. 0. 1. 0. 0. 1. 0.]
 [0. 1. 0. 1. 0. 1. 0. 1. 0. 1. 1. 1. 0. 0. 0. 1. 0. 0. 1. 0. 1. 0. 0. 1.
  0. 0. 0. 0. 1. 1. 1. 1.]
 [1. 1. 0. 1. 1. 0. 0. 1. 1. 1. 1. 0. 0. 1. 0. 1. 1. 0. 1. 0. 1. 1. 1. 0.
  0. 0. 0. 1. 1. 0. 1. 0.]
 [1. 1. 0. 0. 1. 0. 0. 0. 0. 0. 1. 0. 1. 1. 0. 1. 0. 0. 0. 1. 1. 0. 0. 0.
  0. 0. 0. 0. 1. 0. 1. 1.]
 [1. 1. 1. 1. 0. 1. 1. 0. 0. 0. 0. 1. 1. 1. 0. 1. 1. 0. 1. 0. 0. 1. 1. 0.
  0. 1. 0. 1. 1. 1. 1. 1.]
 [1. 1. 0. 0. 1. 1. 0. 1. 0. 0. 0. 1. 0. 0. 1. 1. 1. 0. 0. 1. 0. 1. 1. 0.
  1. 0. 1. 0. 0. 0. 1. 1.]
 [0. 0. 0. 1. 0. 0. 1. 1. 0. 1. 1. 0. 1. 0. 0. 0. 0. 0. 1. 0. 1. 1. 0. 0.
  1. 0. 1. 0. 1. 0. 0. 1.]
 [0. 0. 0. 0. 1. 0. 1. 0. 1. 1. 0. 1. 0. 1. 1. 1. 0. 1. 0. 1. 1. 1. 0. 1.
  0. 1. 0. 1. 0. 0. 1. 0.]
 [1. 0. 0. 0. 1. 1. 1. 1. 1. 1. 1. 0. 0. 1. 1. 1. 0. 1. 0. 1. 1. 1. 1. 0.
  0. 1. 1. 1. 0. 0. 0. 0.]
 [0. 1. 0. 1. 0. 0. 0. 0. 1. 1. 0. 0. 1. 0. 1. 0. 1. 1. 1. 1. 1. 0. 1. 0.
  1. 1. 0. 0. 0. 1. 1. 0.]
 [0. 1. 1. 1. 0. 0. 1. 1. 1. 0. 1. 1. 1. 0. 1. 1. 1. 0. 0. 1. 0. 1. 0. 0.
  0. 1. 1. 1. 0. 0. 1. 1.]
 [0. 1. 1. 1. 0. 1. 0. 1. 1. 0. 0. 0. 0. 0. 0. 1. 1. 0. 1. 1. 0. 0. 0. 1.
  0. 1. 1. 0. 0. 1. 0. 1.]
 [0. 0. 0. 0. 0. 0. 1. 0. 0. 0. 1. 1. 1. 0. 1. 0. 0. 0. 0. 1. 0. 1. 1. 1.
  1. 0. 0. 1. 1. 1. 0. 0.]
 [0. 1. 0. 1. 1. 0. 1. 1. 0. 0. 1. 1. 1. 1. 1. 1. 1. 1. 1. 1. 1. 0. 1. 0.
  0. 0. 1. 0. 0. 1. 0. 1.]
 [0. 1. 1. 1. 0. 0. 1. 0. 0. 1. 1. 1. 1. 1. 0. 1. 0. 1. 1. 1. 1. 1. 1. 1.
  1. 1. 0. 0. 0. 0. 0. 1.]
 [0. 1. 1. 0. 0. 0. 1. 1. 1. 0. 1. 1. 1. 0. 1. 0. 1. 0. 0. 1. 1. 0. 0. 1.
  0. 0. 1. 0. 1. 0. 0. 1.]
 [1. 1. 0. 0. 0. 1. 1. 1. 0. 0. 0. 1. 0. 1. 1. 1. 1. 1. 0. 1. 0. 1. 1. 1.
  0. 1. 1. 1. 1. 0. 1. 0.]
 [0. 0. 0. 1. 0. 0. 1. 1. 1. 1. 1. 1. 0. 1. 0. 0. 1. 0. 0. 1. 0. 1. 0. 0.
  0. 1. 1. 1. 0. 1. 1. 1.]
 [1. 1. 1. 0. 0. 0. 0. 0. 1. 0. 0. 1. 0. 1. 0. 1. 0. 1. 0. 1. 1. 1. 0. 0.
  1. 1. 0. 0. 1. 1. 1. 1.]]
              ******************pytorch_result********************************
              torch.Size([1, 1])
              tensor([[0.0090]])
              print(model)
              [('x0', (32, 32)), ('x1', (32, 32))]
              RecursiveScriptModule(
                original_name=GCN
                (gc): RecursiveScriptModule(

    original_name=ModuleList
    (0): RecursiveScriptModule(
      original_name=GraphConvolution
      (fc2): RecursiveScriptModule(
        original_name=Linear
        (_packed_params): RecursiveScriptModule(original_name=LinearPackedParams)
      )
      (matmul): RecursiveScriptModule(
        original_name=QFunctional
        (activation_post_process): RecursiveScriptModule(original_name=Identity)
      )
      (conv): RecursiveScriptModule(original_name=Conv2d)
    )
    (1): RecursiveScriptModule(
      original_name=GraphConvolution
      (fc2): RecursiveScriptModule(
        original_name=Linear
        (_packed_params): RecursiveScriptModule(original_name=LinearPackedParams)
      )
      (matmul): RecursiveScriptModule(
        original_name=QFunctional
        (activation_post_process): RecursiveScriptModule(original_name=Identity)
      )
      (conv): RecursiveScriptModule(original_name=Conv2d)
    )
    (2): RecursiveScriptModule(
      original_name=GraphConvolution
      (fc2): RecursiveScriptModule(
        original_name=Linear
        (_packed_params): RecursiveScriptModule(original_name=LinearPackedParams)
      )
      (matmul): RecursiveScriptModule(
        original_name=QFunctional
        (activation_post_process): RecursiveScriptModule(original_name=Identity)
      )
      (conv): RecursiveScriptModule(original_name=Conv2d)
    )
    (3): RecursiveScriptModule(
      original_name=GraphConvolution
      (fc2): RecursiveScriptModule(
        original_name=Linear
        (_packed_params): RecursiveScriptModule(original_name=LinearPackedParams)
      )
      (matmul): RecursiveScriptModule(
        original_name=QFunctional
        (activation_post_process): RecursiveScriptModule(original_name=Identity)
      )
      (conv): RecursiveScriptModule(original_name=Conv2d)
    )
  )
  (bn): RecursiveScriptModule(
    original_name=ModuleList
    (0): RecursiveScriptModule(original_name=LayerNorm)
    (1): RecursiveScriptModule(original_name=LayerNorm)
    (2): RecursiveScriptModule(original_name=LayerNorm)
    (3): RecursiveScriptModule(original_name=LayerNorm)
  )
  (relu): RecursiveScriptModule(
    original_name=ModuleList
    (0): RecursiveScriptModule(original_name=ReLU)
    (1): RecursiveScriptModule(original_name=ReLU)
    (2): RecursiveScriptModule(original_name=ReLU)
    (3): RecursiveScriptModule(original_name=ReLU)
  )
  (quant1): RecursiveScriptModule(original_name=Quantize)
  (quant2): RecursiveScriptModule(original_name=Quantize)
  (dequant): RecursiveScriptModule(original_name=DeQuantize)
  (fc): RecursiveScriptModule(
    original_name=Linear
    (_packed_params): RecursiveScriptModule(original_name=LinearPackedParams)
  )
  (dropout): RecursiveScriptModule(
    original_name=ModuleList
    (0): RecursiveScriptModule(original_name=Dropout)
    (1): RecursiveScriptModule(original_name=Dropout)
    (2): RecursiveScriptModule(original_name=Dropout)
    (3): RecursiveScriptModule(original_name=Dropout)
  )
)
input_scales_for_bias {'_packed_params.4': 0.007843137718737125, '_packed_params.8': 0.039630863815546036, '_packed_params.12': 0.05780820548534393, '_packed_params.16': 0.04836883395910263, '_packed_params': 0.034059762954711914}
调整输入形状
[32, 32]
newshape: [1, 32, 32, 1]
weight_shape: (512, 32, 1, 1)
_make.layer_norm_special(data, gamma, beta, output_scale, output_zero_point, axis, epsilon)
weight_shape: (512, 512, 1, 1)
_make.layer_norm_special(data, gamma, beta, output_scale, output_zero_point, axis, epsilon)
weight_shape: (512, 512, 1, 1)
_make.layer_norm_special(data, gamma, beta, output_scale, output_zero_point, axis, epsilon)
weight_shape: (512, 512, 1, 1)
_make.layer_norm_special(data, gamma, beta, output_scale, output_zero_point, axis, epsilon)
dshape: (1, 512, 32, 1)
[CallNode(Op(maximum), [CallNode(Op(qnn.layer_norm), [CallNode(Op(nn.gcn_matmul), [CallNode(Op(qnn.quantize), [Var(x0, ty=TensorType([32, 32], float32)), Constant(0.007843138), Constant(0)], relay.attrs.QuantizeAttrs(0x5595af2afa98), []), CallNode(Op(cast), [CallNode(Op(clip), [CallNode(Op(qnn.requantize), [CallNode(Op(nn.bias_add), [CallNode(Op(qnn.conv2d), [CallNode(Op(maximum), [CallNode(Op(qnn.layer_norm), [CallNode(Op(nn.gcn_matmul), [CallNode(Op(qnn.quantize), [Var(x0, ty=TensorType([32, 32], float32)), Constant(0.007843138), Constant(0)], relay.attrs.QuantizeAttrs(0x5595af2afa98), []), CallNode(Op(cast), [CallNode(Op(clip), [CallNode(Op(qnn.requantize), [CallNode(Op(nn.bias_add), [CallNode(Op(qnn.conv2d), [CallNode(Op(maximum), [CallNode(Op(qnn.layer_norm), [CallNode(Op(nn.gcn_matmul), [CallNode(Op(qnn.quantize), [Var(x0, ty=TensorType([32, 32], float32)), Constant(0.007843138), Constant(0)], relay.attrs.QuantizeAttrs(0x5595af2afa98), []), CallNode(Op(cast), [CallNode(Op(clip), [CallNode(Op(qnn.requantize), [CallNode(Op(nn.bias_add), [CallNode(Op(qnn.conv2d), [CallNode(Op(maximum), [CallNode(Op(qnn.layer_norm), [CallNode(Op(nn.gcn_matmul), [CallNode(Op(qnn.quantize), [Var(x0, ty=TensorType([32, 32], float32)), Constant(0.007843138), Constant(0)], relay.attrs.QuantizeAttrs(0x5595af2afa98), []), CallNode(Op(cast), [CallNode(Op(clip), [CallNode(Op(qnn.requantize), [CallNode(Op(nn.bias_add), [CallNode(Op(qnn.conv2d), [CallNode(Op(reshape), [CallNode(Op(transpose), [CallNode(Op(qnn.quantize), [Var(x1, ty=TensorType([32, 32], float32)), Constant(0.007843138), Constant(0)], relay.attrs.QuantizeAttrs(0x5595af01c118), [])], relay.attrs.TransposeAttrs(0x5595aeff8e68), [])], relay.attrs.ReshapeAttrs(0x5595af2d4668), []), CallNode(Op(qnn.quantize), [Var(gc.0.fc2._packed_params_weight, ty=TensorType([512, 32, 1, 1], float32)), Constant(0.006634252), Constant(0)], relay.attrs.QuantizeAttrs(0x5595af2b1f28), []), Constant(0), Constant(0), Constant(0.007843138), Constant(0.006634252)], relay.attrs.Conv2DAttrs(0x5595aedaf0b8), []), CallNode(Op(qnn.quantize), [Var(gc.0.fc2._packed_params_bias, ty=TensorType([512], float32)), Constant(5.2033352e-05), Constant(0)], relay.attrs.QuantizeAttrs(0x5595af2b2398), [])], relay.attrs.BiasAddAttrs(0x5595af2ca518), []), Constant(5.2033352e-05), Constant(0), Constant(0.0065921587), Constant(0)], relay.attrs.RequantizeAttrs(0x5595af2d45f8), [])], relay.attrs.ClipAttrs(0x5595af2eccd8), [])], relay.attrs.CastAttrs(0x5595af2c94c8), [])], relay.attrs.GCNMatmulAttrs(0x5595af2cff28), []), CallNode(Op(qnn.quantize), [Var(quantized::layer_norm_0.weight, ty=TensorType([512], float32)), Constant(0.039630864), Constant(0)], relay.attrs.QuantizeAttrs(0x5595af2d4c58), []), CallNode(Op(qnn.quantize), [Var(quantized::layer_norm_0.bias, ty=TensorType([512], float32)), Constant(0.039630864), Constant(0)], relay.attrs.QuantizeAttrs(0x5595af2e7e48), []), Constant(0.039630864), Constant(0)], relay.attrs.LayerNormAttrs(0x5595af2cd678), []), CallNode(Op(cast), [Constant(0)], relay.attrs.CastAttrs(0x5595af2cddd8), [])], (nullptr), []), CallNode(Op(qnn.quantize), [Var(gc.1.fc2._packed_params_weight, ty=TensorType([512, 512, 1, 1], float32)), Constant(0.0046843826), Constant(0)], relay.attrs.QuantizeAttrs(0x5595af2b1728), []), Constant(0), Constant(0), Constant(0.039630864), Constant(0.0046843826)], relay.attrs.Conv2DAttrs(0x5595af2d5148), []), CallNode(Op(qnn.quantize), [Var(gc.1.fc2._packed_params_bias, ty=TensorType([512], float32)), Constant(0.00018564613), Constant(0)], relay.attrs.QuantizeAttrs(0x5595af2b1b58), [])], relay.attrs.BiasAddAttrs(0x5595af2ec208), []), Constant(0.00018564613), Constant(0), Constant(0.25665942), Constant(0)], relay.attrs.RequantizeAttrs(0x5595af2d6618), [])], relay.attrs.ClipAttrs(0x5595af02da68), [])], relay.attrs.CastAttrs(0x5595af2cac98), [])], relay.attrs.GCNMatmulAttrs(0x5595af2ca128), []), CallNode(Op(qnn.quantize), [Var(quantized::layer_norm_1.weight, ty=TensorType([512], float32)), Constant(0.057808205), Constant(0)], relay.attrs.QuantizeAttrs(0x5595af2ce0b8), []), CallNode(Op(qnn.quantize), [Var(quantized::layer_norm_1.bias, ty=TensorType([512], float32)), Constant(0.057808205), Constant(0)], relay.attrs.QuantizeAttrs(0x5595af2d40d8), []), Constant(0.057808205), Constant(0)], relay.attrs.LayerNormAttrs(0x5595af2c9f98), []), CallNode(Op(cast), [Constant(0)], relay.attrs.CastAttrs(0x5595af2c9fe8), [])], (nullptr), []), CallNode(Op(qnn.quantize), [Var(gc.2.fc2._packed_params_weight, ty=TensorType([512, 512, 1, 1], float32)), Constant(0.005088551), Constant(0)], relay.attrs.QuantizeAttrs(0x5595af2b0ef8), []), Constant(0), Constant(0), Constant(0.057808205), Constant(0.005088551)], relay.attrs.Conv2DAttrs(0x5595af2d69a8), []), CallNode(Op(qnn.quantize), [Var(gc.2.fc2._packed_params_bias, ty=TensorType([512], float32)), Constant(0.00029416), Constant(0)], relay.attrs.QuantizeAttrs(0x5595af2b14d8), [])], relay.attrs.BiasAddAttrs(0x5595af2e50d8), []), Constant(0.00029416), Constant(0), Constant(0.2896914), Constant(0)], relay.attrs.RequantizeAttrs(0x5595af2cdcc8), [])], relay.attrs.ClipAttrs(0x5595af2d3e28), [])], relay.attrs.CastAttrs(0x5595ae1a0168), [])], relay.attrs.GCNMatmulAttrs(0x5595af0362b8), []), CallNode(Op(qnn.quantize), [Var(quantized::layer_norm_2.weight, ty=TensorType([512], float32)), Constant(0.048368834), Constant(0)], relay.attrs.QuantizeAttrs(0x5595af037c88), []), CallNode(Op(qnn.quantize), [Var(quantized::layer_norm_2.bias, ty=TensorType([512], float32)), Constant(0.048368834), Constant(0)], relay.attrs.QuantizeAttrs(0x5595af0344d8), []), Constant(0.048368834), Constant(0)], relay.attrs.LayerNormAttrs(0x5595af034c58), []), CallNode(Op(cast), [Constant(0)], relay.attrs.CastAttrs(0x5595af2cb188), [])], (nullptr), []), CallNode(Op(qnn.quantize), [Var(gc.3.fc2._packed_params_weight, ty=TensorType([512, 512, 1, 1], float32)), Constant(0.008394404), Constant(0)], relay.attrs.QuantizeAttrs(0x5595af2b06e8), []), Constant(0), Constant(0), Constant(0.048368834), Constant(0.008394404)], relay.attrs.Conv2DAttrs(0x5595af02d888), []), CallNode(Op(qnn.quantize), [Var(gc.3.fc2._packed_params_bias, ty=TensorType([512], float32)), Constant(0.00040602754), Constant(0)], relay.attrs.QuantizeAttrs(0x5595af2b0938), [])], relay.attrs.BiasAddAttrs(0x5595af2d3f88), []), Constant(0.00040602754), Constant(0), Constant(0.9414739), Constant(0)], relay.attrs.RequantizeAttrs(0x5595af03b7a8), [])], relay.attrs.ClipAttrs(0x5595af2cf2d8), [])], relay.attrs.CastAttrs(0x5595af2cfd58), [])], relay.attrs.GCNMatmulAttrs(0x5595af03b568), []), CallNode(Op(qnn.quantize), [Var(quantized::layer_norm_3.weight, ty=TensorType([512], float32)), Constant(0.034059763), Constant(0)], relay.attrs.QuantizeAttrs(0x5595af2c8a88), []), CallNode(Op(qnn.quantize), [Var(quantized::layer_norm_3.bias, ty=TensorType([512], float32)), Constant(0.034059763), Constant(0)], relay.attrs.QuantizeAttrs(0x5595af035218), []), Constant(0.034059763), Constant(0)], relay.attrs.LayerNormAttrs(0x5595af2eb8e8), []), CallNode(Op(cast), [Constant(0)], relay.attrs.CastAttrs(0x5595af034d48), [])], (nullptr), []), 0, 0, 9223372036854775807, 1]
weight_shape: (1, 512, 1, 1)
after unsqueeze
free_var %x0: Tensor[(32, 32), float32] /* span=aten::quantize_per_tensor_0.x0:0:0 */;
free_var %x1: Tensor[(32, 32), float32] /* span=aten::quantize_per_tensor_1.x1:0:0 */;
%0 = qnn.quantize(%x1, 0.00784314f /* span=aten::quantize_per_tensor_1:0:0 */, 0 /* span=aten::quantize_per_tensor_1:0:0 */, out_dtype="int8", axis=1) /* span=aten::quantize_per_tensor_1:0:0 */;
%1 = transpose(%0, axes=[1, 0]) /* span=quantized::linear_0:0:0 */;
free_var %gc.0.fc2._packed_params_weight: Tensor[(512, 32, 1, 1), float32] /* span=quantized::linear_0:0:0 */;
%2 = reshape(%1, newshape=[1, 32, 32, 1]) /* span=quantized::linear_0:0:0 */;
%3 = qnn.quantize(%gc.0.fc2._packed_params_weight, 0.00663425f /* span=quantized::linear_0:0:0 */, 0 /* span=quantized::linear_0:0:0 */, out_dtype="int8", axis=0) /* span=quantized::linear_0:0:0 */;
free_var %gc.0.fc2._packed_params_bias: Tensor[(512), float32] /* span=quantized::linear_0:0:0 */;
%4 = qnn.conv2d(%2, %3, 0 /* span=quantized::linear_0:0:0 */, 0 /* span=quantized::linear_0:0:0 */, 0.00784314f /* span=quantized::linear_0:0:0 */, 0.00663425f /* span=quantized::linear_0:0:0 */, padding=[0, 0, 0, 0], channels=512, kernel_size=[1, 1], out_dtype="int32") /* span=quantized::linear_0:0:0 */;
%5 = qnn.quantize(%gc.0.fc2._packed_params_bias, 5.20334e-05f /* span=quantized::linear_0:0:0 */, 0 /* span=quantized::linear_0:0:0 */, out_dtype="int32", axis=0) /* span=quantized::linear_0:0:0 */;
%6 = nn.bias_add(%4, %5) /* span=quantized::linear_0:0:0 */;
%7 = qnn.requantize(%6, 5.20334e-05f /* span=quantized::linear_0:0:0 */, 0 /* span=quantized::linear_0:0:0 */, 0.00659216f /* span=quantized::linear_0:0:0 */, 0 /* span=quantized::linear_0:0:0 */, axis=1, out_dtype="int8") /* span=quantized::linear_0:0:0 */;
%8 = clip(%7, a_min=0f, a_max=127f) /* span=quantized::linear_0:0:0 */;
%9 = qnn.quantize(%x0, 0.00784314f /* span=aten::quantize_per_tensor_0:0:0 */, 0 /* span=aten::quantize_per_tensor_0:0:0 */, out_dtype="int8", axis=1) /* span=aten::quantize_per_tensor_0:0:0 */;
%10 = cast(%8, dtype="int8") /* span=quantized::linear_0:0:0 */;
free_var %quantized::layer_norm_0.weight: Tensor[(512), float32] /* span=quantized::layer_norm_0.weight:0:0 */;
free_var %quantized::layer_norm_0.bias: Tensor[(512), float32] /* span=quantized::layer_norm_0.bias:0:0 */;
%11 = nn.gcn_matmul(%9, %10, units=None) /* span=quantized::matmul_0:0:0 */;
%12 = qnn.quantize(%quantized::layer_norm_0.weight, 0.0396309f /* span=quantized::layer_norm_0:0:0 */, 0 /* span=quantized::layer_norm_0:0:0 */, out_dtype="int8") /* span=quantized::layer_norm_0:0:0 */;
%13 = qnn.quantize(%quantized::layer_norm_0.bias, 0.0396309f /* span=quantized::layer_norm_0:0:0 */, 0 /* span=quantized::layer_norm_0:0:0 */, out_dtype="int8") /* span=quantized::layer_norm_0:0:0 */;
%14 = qnn.layer_norm(%11, %12, %13, 0.0396309f /* span=quantized::layer_norm_0:0:0 */, 0 /* span=quantized::layer_norm_0:0:0 */, axis=1) /* span=quantized::layer_norm_0:0:0 */;
%15 = cast(0 /* span=aten::relu_0:0:0 */, dtype="int8") /* span=aten::relu_0:0:0 */;
free_var %gc.1.fc2._packed_params_weight: Tensor[(512, 512, 1, 1), float32] /* span=quantized::linear_1:0:0 */;
%16 = maximum(%14, %15) /* span=aten::relu_0:0:0 */;
%17 = qnn.quantize(%gc.1.fc2._packed_params_weight, 0.00468438f /* span=quantized::linear_1:0:0 */, 0 /* span=quantized::linear_1:0:0 */, out_dtype="int8", axis=0) /* span=quantized::linear_1:0:0 */;
free_var %gc.1.fc2._packed_params_bias: Tensor[(512), float32] /* span=quantized::linear_1:0:0 */;
%18 = qnn.conv2d(%16, %17, 0 /* span=quantized::linear_1:0:0 */, 0 /* span=quantized::linear_1:0:0 */, 0.0396309f /* span=quantized::linear_1:0:0 */, 0.00468438f /* span=quantized::linear_1:0:0 */, padding=[0, 0, 0, 0], channels=512, kernel_size=[1, 1], out_dtype="int32") /* span=quantized::linear_1:0:0 */;
%19 = qnn.quantize(%gc.1.fc2._packed_params_bias, 0.000185646f /* span=quantized::linear_1:0:0 */, 0 /* span=quantized::linear_1:0:0 */, out_dtype="int32", axis=0) /* span=quantized::linear_1:0:0 */;
%20 = nn.bias_add(%18, %19) /* span=quantized::linear_1:0:0 */;
%21 = qnn.requantize(%20, 0.000185646f /* span=quantized::linear_1:0:0 */, 0 /* span=quantized::linear_1:0:0 */, 0.256659f /* span=quantized::linear_1:0:0 */, 0 /* span=quantized::linear_1:0:0 */, axis=1, out_dtype="int8") /* span=quantized::linear_1:0:0 */;
%22 = clip(%21, a_min=0f, a_max=127f) /* span=quantized::linear_1:0:0 */;
%23 = cast(%22, dtype="int8") /* span=quantized::linear_1:0:0 */;
free_var %quantized::layer_norm_1.weight: Tensor[(512), float32] /* span=quantized::layer_norm_1.weight:0:0 */;
free_var %quantized::layer_norm_1.bias: Tensor[(512), float32] /* span=quantized::layer_norm_1.bias:0:0 */;
%24 = nn.gcn_matmul(%9, %23, units=None) /* span=quantized::matmul_1:0:0 */;
%25 = qnn.quantize(%quantized::layer_norm_1.weight, 0.0578082f /* span=quantized::layer_norm_1:0:0 */, 0 /* span=quantized::layer_norm_1:0:0 */, out_dtype="int8") /* span=quantized::layer_norm_1:0:0 */;
%26 = qnn.quantize(%quantized::layer_norm_1.bias, 0.0578082f /* span=quantized::layer_norm_1:0:0 */, 0 /* span=quantized::layer_norm_1:0:0 */, out_dtype="int8") /* span=quantized::layer_norm_1:0:0 */;
%27 = qnn.layer_norm(%24, %25, %26, 0.0578082f /* span=quantized::layer_norm_1:0:0 */, 0 /* span=quantized::layer_norm_1:0:0 */, axis=1) /* span=quantized::layer_norm_1:0:0 */;
%28 = cast(0 /* span=aten::relu_1:0:0 */, dtype="int8") /* span=aten::relu_1:0:0 */;
free_var %gc.2.fc2._packed_params_weight: Tensor[(512, 512, 1, 1), float32] /* span=quantized::linear_2:0:0 */;
%29 = maximum(%27, %28) /* span=aten::relu_1:0:0 */;
%30 = qnn.quantize(%gc.2.fc2._packed_params_weight, 0.00508855f /* span=quantized::linear_2:0:0 */, 0 /* span=quantized::linear_2:0:0 */, out_dtype="int8", axis=0) /* span=quantized::linear_2:0:0 */;
free_var %gc.2.fc2._packed_params_bias: Tensor[(512), float32] /* span=quantized::linear_2:0:0 */;
%31 = qnn.conv2d(%29, %30, 0 /* span=quantized::linear_2:0:0 */, 0 /* span=quantized::linear_2:0:0 */, 0.0578082f /* span=quantized::linear_2:0:0 */, 0.00508855f /* span=quantized::linear_2:0:0 */, padding=[0, 0, 0, 0], channels=512, kernel_size=[1, 1], out_dtype="int32") /* span=quantized::linear_2:0:0 */;
%32 = qnn.quantize(%gc.2.fc2._packed_params_bias, 0.00029416f /* span=quantized::linear_2:0:0 */, 0 /* span=quantized::linear_2:0:0 */, out_dtype="int32", axis=0) /* span=quantized::linear_2:0:0 */;
%33 = nn.bias_add(%31, %32) /* span=quantized::linear_2:0:0 */;
%34 = qnn.requantize(%33, 0.00029416f /* span=quantized::linear_2:0:0 */, 0 /* span=quantized::linear_2:0:0 */, 0.289691f /* span=quantized::linear_2:0:0 */, 0 /* span=quantized::linear_2:0:0 */, axis=1, out_dtype="int8") /* span=quantized::linear_2:0:0 */;
%35 = clip(%34, a_min=0f, a_max=127f) /* span=quantized::linear_2:0:0 */;
%36 = cast(%35, dtype="int8") /* span=quantized::linear_2:0:0 */;
free_var %quantized::layer_norm_2.weight: Tensor[(512), float32] /* span=quantized::layer_norm_2.weight:0:0 */;
free_var %quantized::layer_norm_2.bias: Tensor[(512), float32] /* span=quantized::layer_norm_2.bias:0:0 */;
%37 = nn.gcn_matmul(%9, %36, units=None) /* span=quantized::matmul_2:0:0 */;
%38 = qnn.quantize(%quantized::layer_norm_2.weight, 0.0483688f /* span=quantized::layer_norm_2:0:0 */, 0 /* span=quantized::layer_norm_2:0:0 */, out_dtype="int8") /* span=quantized::layer_norm_2:0:0 */;
%39 = qnn.quantize(%quantized::layer_norm_2.bias, 0.0483688f /* span=quantized::layer_norm_2:0:0 */, 0 /* span=quantized::layer_norm_2:0:0 */, out_dtype="int8") /* span=quantized::layer_norm_2:0:0 */;
%40 = qnn.layer_norm(%37, %38, %39, 0.0483688f /* span=quantized::layer_norm_2:0:0 */, 0 /* span=quantized::layer_norm_2:0:0 */, axis=1) /* span=quantized::layer_norm_2:0:0 */;
%41 = cast(0 /* span=aten::relu_2:0:0 */, dtype="int8") /* span=aten::relu_2:0:0 */;
free_var %gc.3.fc2._packed_params_weight: Tensor[(512, 512, 1, 1), float32] /* span=quantized::linear_3:0:0 */;
%42 = maximum(%40, %41) /* span=aten::relu_2:0:0 */;
%43 = qnn.quantize(%gc.3.fc2._packed_params_weight, 0.0083944f /* span=quantized::linear_3:0:0 */, 0 /* span=quantized::linear_3:0:0 */, out_dtype="int8", axis=0) /* span=quantized::linear_3:0:0 */;
free_var %gc.3.fc2._packed_params_bias: Tensor[(512), float32] /* span=quantized::linear_3:0:0 */;
%44 = qnn.conv2d(%42, %43, 0 /* span=quantized::linear_3:0:0 */, 0 /* span=quantized::linear_3:0:0 */, 0.0483688f /* span=quantized::linear_3:0:0 */, 0.0083944f /* span=quantized::linear_3:0:0 */, padding=[0, 0, 0, 0], channels=512, kernel_size=[1, 1], out_dtype="int32") /* span=quantized::linear_3:0:0 */;
%45 = qnn.quantize(%gc.3.fc2._packed_params_bias, 0.000406028f /* span=quantized::linear_3:0:0 */, 0 /* span=quantized::linear_3:0:0 */, out_dtype="int32", axis=0) /* span=quantized::linear_3:0:0 */;
%46 = nn.bias_add(%44, %45) /* span=quantized::linear_3:0:0 */;
%47 = qnn.requantize(%46, 0.000406028f /* span=quantized::linear_3:0:0 */, 0 /* span=quantized::linear_3:0:0 */, 0.941474f /* span=quantized::linear_3:0:0 */, 0 /* span=quantized::linear_3:0:0 */, axis=1, out_dtype="int8") /* span=quantized::linear_3:0:0 */;
%48 = clip(%47, a_min=0f, a_max=127f) /* span=quantized::linear_3:0:0 */;
%49 = cast(%48, dtype="int8") /* span=quantized::linear_3:0:0 */;
free_var %quantized::layer_norm_3.weight: Tensor[(512), float32] /* span=quantized::layer_norm_3.weight:0:0 */;
free_var %quantized::layer_norm_3.bias: Tensor[(512), float32] /* span=quantized::layer_norm_3.bias:0:0 */;
%50 = nn.gcn_matmul(%9, %49, units=None) /* span=quantized::matmul_3:0:0 */;
%51 = qnn.quantize(%quantized::layer_norm_3.weight, 0.0340598f /* span=quantized::layer_norm_3:0:0 */, 0 /* span=quantized::layer_norm_3:0:0 */, out_dtype="int8") /* span=quantized::layer_norm_3:0:0 */;
%52 = qnn.quantize(%quantized::layer_norm_3.bias, 0.0340598f /* span=quantized::layer_norm_3:0:0 */, 0 /* span=quantized::layer_norm_3:0:0 */, out_dtype="int8") /* span=quantized::layer_norm_3:0:0 */;
%53 = qnn.layer_norm(%50, %51, %52, 0.0340598f /* span=quantized::layer_norm_3:0:0 */, 0 /* span=quantized::layer_norm_3:0:0 */, axis=1) /* span=quantized::layer_norm_3:0:0 */;
%54 = cast(0 /* span=aten::relu_3:0:0 */, dtype="int8") /* span=aten::relu_3:0:0 */;
%55 = maximum(%53, %54) /* span=aten::relu_3:0:0 */;
%56 = take(%55, 0 /* span=aten::select_0:0:0 */, axis=2, mode="wrap") /* span=aten::select_0:0:0 */;
reshape(%56, newshape=[1, 512, 1, 1])
****************************************************************************************************
#[version = "0.0.5"]
type List[A] {
  Cons(A, List[A]),
  Nil,
}

type Option[A] {
  Some(A),
  None,
}

type Tree[A] {
  Rose(A, List[Tree[A]]),
}

type tensor_float16_t {
  tensor_nil_float16,
  tensor0_float16(float16),
  tensor1_float16(Tensor[(?), float16]),
  tensor2_float16(Tensor[(?, ?), float16]),
  tensor3_float16(Tensor[(?, ?, ?), float16]),
  tensor4_float16(Tensor[(?, ?, ?, ?), float16]),
  tensor5_float16(Tensor[(?, ?, ?, ?, ?), float16]),
  tensor6_float16(Tensor[(?, ?, ?, ?, ?, ?), float16]),
}

type tensor_float32_t {
  tensor_nil_float32,
  tensor0_float32(float32),
  tensor1_float32(Tensor[(?), float32]),
  tensor2_float32(Tensor[(?, ?), float32]),
  tensor3_float32(Tensor[(?, ?, ?), float32]),
  tensor4_float32(Tensor[(?, ?, ?, ?), float32]),
  tensor5_float32(Tensor[(?, ?, ?, ?, ?), float32]),
  tensor6_float32(Tensor[(?, ?, ?, ?, ?, ?), float32]),
}

type tensor_float64_t {
  tensor_nil_float64,
  tensor0_float64(float64),
  tensor1_float64(Tensor[(?), float64]),
  tensor2_float64(Tensor[(?, ?), float64]),
  tensor3_float64(Tensor[(?, ?, ?), float64]),
  tensor4_float64(Tensor[(?, ?, ?, ?), float64]),
  tensor5_float64(Tensor[(?, ?, ?, ?, ?), float64]),
  tensor6_float64(Tensor[(?, ?, ?, ?, ?, ?), float64]),
}

type tensor_int16_t {
  tensor_nil_int16,
  tensor0_int16(int16),
  tensor1_int16(Tensor[(?), int16]),
  tensor2_int16(Tensor[(?, ?), int16]),
  tensor3_int16(Tensor[(?, ?, ?), int16]),
  tensor4_int16(Tensor[(?, ?, ?, ?), int16]),
  tensor5_int16(Tensor[(?, ?, ?, ?, ?), int16]),
  tensor6_int16(Tensor[(?, ?, ?, ?, ?, ?), int16]),
}

type tensor_int32_t {
  tensor_nil_int32,
  tensor0_int32(int32),
  tensor1_int32(Tensor[(?), int32]),
  tensor2_int32(Tensor[(?, ?), int32]),
  tensor3_int32(Tensor[(?, ?, ?), int32]),
  tensor4_int32(Tensor[(?, ?, ?, ?), int32]),
  tensor5_int32(Tensor[(?, ?, ?, ?, ?), int32]),
  tensor6_int32(Tensor[(?, ?, ?, ?, ?, ?), int32]),
}

type tensor_int64_t {
  tensor_nil_int64,
  tensor0_int64(int64),
  tensor1_int64(Tensor[(?), int64]),
  tensor2_int64(Tensor[(?, ?), int64]),
  tensor3_int64(Tensor[(?, ?, ?), int64]),
  tensor4_int64(Tensor[(?, ?, ?, ?), int64]),
  tensor5_int64(Tensor[(?, ?, ?, ?, ?), int64]),
  tensor6_int64(Tensor[(?, ?, ?, ?, ?, ?), int64]),
}

type tensor_int8_t {
  tensor_nil_int8,
  tensor0_int8(int8),
  tensor1_int8(Tensor[(?), int8]),
  tensor2_int8(Tensor[(?, ?), int8]),
  tensor3_int8(Tensor[(?, ?, ?), int8]),
  tensor4_int8(Tensor[(?, ?, ?, ?), int8]),
  tensor5_int8(Tensor[(?, ?, ?, ?, ?), int8]),
  tensor6_int8(Tensor[(?, ?, ?, ?, ?, ?), int8]),
}

type tensor_uint16_t {
  tensor_nil_uint16,
  tensor0_uint16(uint16),
  tensor1_uint16(Tensor[(?), uint16]),
  tensor2_uint16(Tensor[(?, ?), uint16]),
  tensor3_uint16(Tensor[(?, ?, ?), uint16]),
  tensor4_uint16(Tensor[(?, ?, ?, ?), uint16]),
  tensor5_uint16(Tensor[(?, ?, ?, ?, ?), uint16]),
  tensor6_uint16(Tensor[(?, ?, ?, ?, ?, ?), uint16]),
}

type tensor_uint8_t {
  tensor_nil_uint8,
  tensor0_uint8(uint8),
  tensor1_uint8(Tensor[(?), uint8]),
  tensor2_uint8(Tensor[(?, ?), uint8]),
  tensor3_uint8(Tensor[(?, ?, ?), uint8]),
  tensor4_uint8(Tensor[(?, ?, ?, ?), uint8]),
  tensor5_uint8(Tensor[(?, ?, ?, ?, ?), uint8]),
  tensor6_uint8(Tensor[(?, ?, ?, ?, ?, ?), uint8]),
}

def @main(%x0: Tensor[(32, 32), float32] /* span=aten::quantize_per_tensor_0.x0:0:0 */, %x1: Tensor[(32, 32), float32] /* span=aten::quantize_per_tensor_1.x1:0:0 */, %gc.0.fc2._packed_params_weight: Tensor[(512, 32, 1, 1), float32] /* span=quantized::linear_0:0:0 */, %gc.0.fc2._packed_params_bias: Tensor[(512), float32] /* span=quantized::linear_0:0:0 */, %quantized::layer_norm_0.weight: Tensor[(512), float32] /* span=quantized::layer_norm_0.weight:0:0 */, %quantized::layer_norm_0.bias: Tensor[(512), float32] /* span=quantized::layer_norm_0.bias:0:0 */, %gc.1.fc2._packed_params_weight: Tensor[(512, 512, 1, 1), float32] /* span=quantized::linear_1:0:0 */, %gc.1.fc2._packed_params_bias: Tensor[(512), float32] /* span=quantized::linear_1:0:0 */, %quantized::layer_norm_1.weight: Tensor[(512), float32] /* span=quantized::layer_norm_1.weight:0:0 */, %quantized::layer_norm_1.bias: Tensor[(512), float32] /* span=quantized::layer_norm_1.bias:0:0 */, %gc.2.fc2._packed_params_weight: Tensor[(512, 512, 1, 1), float32] /* span=quantized::linear_2:0:0 */, %gc.2.fc2._packed_params_bias: Tensor[(512), float32] /* span=quantized::linear_2:0:0 */, %quantized::layer_norm_2.weight: Tensor[(512), float32] /* span=quantized::layer_norm_2.weight:0:0 */, %quantized::layer_norm_2.bias: Tensor[(512), float32] /* span=quantized::layer_norm_2.bias:0:0 */, %gc.3.fc2._packed_params_weight: Tensor[(512, 512, 1, 1), float32] /* span=quantized::linear_3:0:0 */, %gc.3.fc2._packed_params_bias: Tensor[(512), float32] /* span=quantized::linear_3:0:0 */, %quantized::layer_norm_3.weight: Tensor[(512), float32] /* span=quantized::layer_norm_3.weight:0:0 */, %quantized::layer_norm_3.bias: Tensor[(512), float32] /* span=quantized::layer_norm_3.bias:0:0 */, %fc._packed_params_weight: Tensor[(1, 512, 1, 1), float32] /* span=quantized::linear_4:0:0 */, %fc._packed_params_bias: Tensor[(1), float32] /* span=quantized::linear_4:0:0 */) {
  %0 = qnn.quantize(%x1, 0.00784314f /* span=aten::quantize_per_tensor_1:0:0 */, 0 /* span=aten::quantize_per_tensor_1:0:0 */, out_dtype="int8", axis=1) /* span=aten::quantize_per_tensor_1:0:0 */;
  %1 = transpose(%0, axes=[1, 0]) /* span=quantized::linear_0:0:0 */;
  %2 = reshape(%1, newshape=[1, 32, 32, 1]) /* span=quantized::linear_0:0:0 */;
  %3 = qnn.quantize(%gc.0.fc2._packed_params_weight, 0.00663425f /* span=quantized::linear_0:0:0 */, 0 /* span=quantized::linear_0:0:0 */, out_dtype="int8", axis=0) /* span=quantized::linear_0:0:0 */;
  %4 = qnn.conv2d(%2, %3, 0 /* span=quantized::linear_0:0:0 */, 0 /* span=quantized::linear_0:0:0 */, 0.00784314f /* span=quantized::linear_0:0:0 */, 0.00663425f /* span=quantized::linear_0:0:0 */, padding=[0, 0, 0, 0], channels=512, kernel_size=[1, 1], out_dtype="int32") /* span=quantized::linear_0:0:0 */;
  %5 = qnn.quantize(%gc.0.fc2._packed_params_bias, 5.20334e-05f /* span=quantized::linear_0:0:0 */, 0 /* span=quantized::linear_0:0:0 */, out_dtype="int32", axis=0) /* span=quantized::linear_0:0:0 */;
  %6 = nn.bias_add(%4, %5) /* span=quantized::linear_0:0:0 */;
  %7 = qnn.requantize(%6, 5.20334e-05f /* span=quantized::linear_0:0:0 */, 0 /* span=quantized::linear_0:0:0 */, 0.00659216f /* span=quantized::linear_0:0:0 */, 0 /* span=quantized::linear_0:0:0 */, axis=1, out_dtype="int8") /* span=quantized::linear_0:0:0 */;
  %8 = clip(%7, a_min=0f, a_max=127f) /* span=quantized::linear_0:0:0 */;
  %9 = qnn.quantize(%x0, 0.00784314f /* span=aten::quantize_per_tensor_0:0:0 */, 0 /* span=aten::quantize_per_tensor_0:0:0 */, out_dtype="int8", axis=1) /* span=aten::quantize_per_tensor_0:0:0 */;
  %10 = cast(%8, dtype="int8") /* span=quantized::linear_0:0:0 */;
  %11 = nn.gcn_matmul(%9, %10, units=None) /* span=quantized::matmul_0:0:0 */;
  %12 = qnn.quantize(%quantized::layer_norm_0.weight, 0.0396309f /* span=quantized::layer_norm_0:0:0 */, 0 /* span=quantized::layer_norm_0:0:0 */, out_dtype="int8") /* span=quantized::layer_norm_0:0:0 */;
  %13 = qnn.quantize(%quantized::layer_norm_0.bias, 0.0396309f /* span=quantized::layer_norm_0:0:0 */, 0 /* span=quantized::layer_norm_0:0:0 */, out_dtype="int8") /* span=quantized::layer_norm_0:0:0 */;
  %14 = qnn.layer_norm(%11, %12, %13, 0.0396309f /* span=quantized::layer_norm_0:0:0 */, 0 /* span=quantized::layer_norm_0:0:0 */, axis=1) /* span=quantized::layer_norm_0:0:0 */;
  %15 = cast(0 /* span=aten::relu_0:0:0 */, dtype="int8") /* span=aten::relu_0:0:0 */;
  %16 = maximum(%14, %15) /* span=aten::relu_0:0:0 */;
  %17 = qnn.quantize(%gc.1.fc2._packed_params_weight, 0.00468438f /* span=quantized::linear_1:0:0 */, 0 /* span=quantized::linear_1:0:0 */, out_dtype="int8", axis=0) /* span=quantized::linear_1:0:0 */;
  %18 = qnn.conv2d(%16, %17, 0 /* span=quantized::linear_1:0:0 */, 0 /* span=quantized::linear_1:0:0 */, 0.0396309f /* span=quantized::linear_1:0:0 */, 0.00468438f /* span=quantized::linear_1:0:0 */, padding=[0, 0, 0, 0], channels=512, kernel_size=[1, 1], out_dtype="int32") /* span=quantized::linear_1:0:0 */;
  %19 = qnn.quantize(%gc.1.fc2._packed_params_bias, 0.000185646f /* span=quantized::linear_1:0:0 */, 0 /* span=quantized::linear_1:0:0 */, out_dtype="int32", axis=0) /* span=quantized::linear_1:0:0 */;
  %20 = nn.bias_add(%18, %19) /* span=quantized::linear_1:0:0 */;
  %21 = qnn.requantize(%20, 0.000185646f /* span=quantized::linear_1:0:0 */, 0 /* span=quantized::linear_1:0:0 */, 0.256659f /* span=quantized::linear_1:0:0 */, 0 /* span=quantized::linear_1:0:0 */, axis=1, out_dtype="int8") /* span=quantized::linear_1:0:0 */;
  %22 = clip(%21, a_min=0f, a_max=127f) /* span=quantized::linear_1:0:0 */;
  %23 = cast(%22, dtype="int8") /* span=quantized::linear_1:0:0 */;
  %24 = nn.gcn_matmul(%9, %23, units=None) /* span=quantized::matmul_1:0:0 */;
  %25 = qnn.quantize(%quantized::layer_norm_1.weight, 0.0578082f /* span=quantized::layer_norm_1:0:0 */, 0 /* span=quantized::layer_norm_1:0:0 */, out_dtype="int8") /* span=quantized::layer_norm_1:0:0 */;
  %26 = qnn.quantize(%quantized::layer_norm_1.bias, 0.0578082f /* span=quantized::layer_norm_1:0:0 */, 0 /* span=quantized::layer_norm_1:0:0 */, out_dtype="int8") /* span=quantized::layer_norm_1:0:0 */;
  %27 = qnn.layer_norm(%24, %25, %26, 0.0578082f /* span=quantized::layer_norm_1:0:0 */, 0 /* span=quantized::layer_norm_1:0:0 */, axis=1) /* span=quantized::layer_norm_1:0:0 */;
  %28 = cast(0 /* span=aten::relu_1:0:0 */, dtype="int8") /* span=aten::relu_1:0:0 */;
  %29 = maximum(%27, %28) /* span=aten::relu_1:0:0 */;
  %30 = qnn.quantize(%gc.2.fc2._packed_params_weight, 0.00508855f /* span=quantized::linear_2:0:0 */, 0 /* span=quantized::linear_2:0:0 */, out_dtype="int8", axis=0) /* span=quantized::linear_2:0:0 */;
  %31 = qnn.conv2d(%29, %30, 0 /* span=quantized::linear_2:0:0 */, 0 /* span=quantized::linear_2:0:0 */, 0.0578082f /* span=quantized::linear_2:0:0 */, 0.00508855f /* span=quantized::linear_2:0:0 */, padding=[0, 0, 0, 0], channels=512, kernel_size=[1, 1], out_dtype="int32") /* span=quantized::linear_2:0:0 */;
  %32 = qnn.quantize(%gc.2.fc2._packed_params_bias, 0.00029416f /* span=quantized::linear_2:0:0 */, 0 /* span=quantized::linear_2:0:0 */, out_dtype="int32", axis=0) /* span=quantized::linear_2:0:0 */;
  %33 = nn.bias_add(%31, %32) /* span=quantized::linear_2:0:0 */;
  %34 = qnn.requantize(%33, 0.00029416f /* span=quantized::linear_2:0:0 */, 0 /* span=quantized::linear_2:0:0 */, 0.289691f /* span=quantized::linear_2:0:0 */, 0 /* span=quantized::linear_2:0:0 */, axis=1, out_dtype="int8") /* span=quantized::linear_2:0:0 */;
  %35 = clip(%34, a_min=0f, a_max=127f) /* span=quantized::linear_2:0:0 */;
  %36 = cast(%35, dtype="int8") /* span=quantized::linear_2:0:0 */;
  %37 = nn.gcn_matmul(%9, %36, units=None) /* span=quantized::matmul_2:0:0 */;
  %38 = qnn.quantize(%quantized::layer_norm_2.weight, 0.0483688f /* span=quantized::layer_norm_2:0:0 */, 0 /* span=quantized::layer_norm_2:0:0 */, out_dtype="int8") /* span=quantized::layer_norm_2:0:0 */;
  %39 = qnn.quantize(%quantized::layer_norm_2.bias, 0.0483688f /* span=quantized::layer_norm_2:0:0 */, 0 /* span=quantized::layer_norm_2:0:0 */, out_dtype="int8") /* span=quantized::layer_norm_2:0:0 */;
  %40 = qnn.layer_norm(%37, %38, %39, 0.0483688f /* span=quantized::layer_norm_2:0:0 */, 0 /* span=quantized::layer_norm_2:0:0 */, axis=1) /* span=quantized::layer_norm_2:0:0 */;
  %41 = cast(0 /* span=aten::relu_2:0:0 */, dtype="int8") /* span=aten::relu_2:0:0 */;
  %42 = maximum(%40, %41) /* span=aten::relu_2:0:0 */;
  %43 = qnn.quantize(%gc.3.fc2._packed_params_weight, 0.0083944f /* span=quantized::linear_3:0:0 */, 0 /* span=quantized::linear_3:0:0 */, out_dtype="int8", axis=0) /* span=quantized::linear_3:0:0 */;
  %44 = qnn.conv2d(%42, %43, 0 /* span=quantized::linear_3:0:0 */, 0 /* span=quantized::linear_3:0:0 */, 0.0483688f /* span=quantized::linear_3:0:0 */, 0.0083944f /* span=quantized::linear_3:0:0 */, padding=[0, 0, 0, 0], channels=512, kernel_size=[1, 1], out_dtype="int32") /* span=quantized::linear_3:0:0 */;
  %45 = qnn.quantize(%gc.3.fc2._packed_params_bias, 0.000406028f /* span=quantized::linear_3:0:0 */, 0 /* span=quantized::linear_3:0:0 */, out_dtype="int32", axis=0) /* span=quantized::linear_3:0:0 */;
  %46 = nn.bias_add(%44, %45) /* span=quantized::linear_3:0:0 */;
  %47 = qnn.requantize(%46, 0.000406028f /* span=quantized::linear_3:0:0 */, 0 /* span=quantized::linear_3:0:0 */, 0.941474f /* span=quantized::linear_3:0:0 */, 0 /* span=quantized::linear_3:0:0 */, axis=1, out_dtype="int8") /* span=quantized::linear_3:0:0 */;
  %48 = clip(%47, a_min=0f, a_max=127f) /* span=quantized::linear_3:0:0 */;
  %49 = cast(%48, dtype="int8") /* span=quantized::linear_3:0:0 */;
  %50 = nn.gcn_matmul(%9, %49, units=None) /* span=quantized::matmul_3:0:0 */;
  %51 = qnn.quantize(%quantized::layer_norm_3.weight, 0.0340598f /* span=quantized::layer_norm_3:0:0 */, 0 /* span=quantized::layer_norm_3:0:0 */, out_dtype="int8") /* span=quantized::layer_norm_3:0:0 */;
  %52 = qnn.quantize(%quantized::layer_norm_3.bias, 0.0340598f /* span=quantized::layer_norm_3:0:0 */, 0 /* span=quantized::layer_norm_3:0:0 */, out_dtype="int8") /* span=quantized::layer_norm_3:0:0 */;
  %53 = qnn.layer_norm(%50, %51, %52, 0.0340598f /* span=quantized::layer_norm_3:0:0 */, 0 /* span=quantized::layer_norm_3:0:0 */, axis=1) /* span=quantized::layer_norm_3:0:0 */;
  %54 = cast(0 /* span=aten::relu_3:0:0 */, dtype="int8") /* span=aten::relu_3:0:0 */;
  %55 = maximum(%53, %54) /* span=aten::relu_3:0:0 */;
  %56 = take(%55, 0 /* span=aten::select_0:0:0 */, axis=2, mode="wrap") /* span=aten::select_0:0:0 */;
  %57 = reshape(%56, newshape=[1, 512, 1, 1]) /* span=quantized::linear_4:0:0 */;
  %58 = qnn.quantize(%fc._packed_params_weight, 0.000690677f /* span=quantized::linear_4:0:0 */, 0 /* span=quantized::linear_4:0:0 */, out_dtype="int8", axis=0) /* span=quantized::linear_4:0:0 */;
  %59 = qnn.conv2d(%57, %58, 0 /* span=quantized::linear_4:0:0 */, 0 /* span=quantized::linear_4:0:0 */, 0.0340598f /* span=quantized::linear_4:0:0 */, 0.000690677f /* span=quantized::linear_4:0:0 */, padding=[0, 0, 0, 0], channels=1, kernel_size=[1, 1], out_dtype="int32") /* span=quantized::linear_4:0:0 */;
  %60 = qnn.quantize(%fc._packed_params_bias, 2.35243e-05f /* span=quantized::linear_4:0:0 */, 0 /* span=quantized::linear_4:0:0 */, out_dtype="int32", axis=0) /* span=quantized::linear_4:0:0 */;
  %61 = nn.bias_add(%59, %60) /* span=quantized::linear_4:0:0 */;
  %62 = qnn.requantize(%61, 2.35243e-05f /* span=quantized::linear_4:0:0 */, 0 /* span=quantized::linear_4:0:0 */, 0.000376977f /* span=quantized::linear_4:0:0 */, 0 /* span=quantized::linear_4:0:0 */, axis=1, out_dtype="int8") /* span=quantized::linear_4:0:0 */;
  %63 = clip(%62, a_min=0f, a_max=127f) /* span=quantized::linear_4:0:0 */;
  %64 = cast(%63, dtype="int8") /* span=quantized::linear_4:0:0 */;
  qnn.dequantize(%64, 0.000376977f /* span=aten::dequantize_0:0:0 */, 0 /* span=aten::dequantize_0:0:0 */) /* span=aten::dequantize_0:0:0 */
}
输出原始double_multiplier
5.20334e-05 0.00659216 0.00789322
输出fixed_point_multiplier和shift
0.00789322 1084835712 6
输出原始double_multiplier
0.000185646 0.256659 0.000723317
输出fixed_point_multiplier和shift
0.000723317 1590590976 10
输出原始double_multiplier
0.00029416 0.289691 0.00101543
输出fixed_point_multiplier和shift
0.00101543 1116472064 9
输出原始double_multiplier
0.000406028 0.941474 0.000431268
输出fixed_point_multiplier和shift
0.000431268 1896736640 11
输出原始double_multiplier
2.35243e-05 0.000376977 0.0624024
输出fixed_point_multiplier和shift
0.0624024 2144130816 4
out = Add(out, ExpandBiasToMatchAxis(beta, ndim, {axis}));
out = Add(out, ExpandBiasToMatchAxis(beta, ndim, {axis}));
out = Add(out, ExpandBiasToMatchAxis(beta, ndim, {axis}));
out = Add(out, ExpandBiasToMatchAxis(beta, ndim, {axis}));

****************************************************************************************************
****************************************************************************************************
#[version = "0.0.5"]
type List[A] {
  Cons(A, List[A]),
  Nil,
}

type Option[A] {
  Some(A),
  None,
}

type Tree[A] {
  Rose(A, List[Tree[A]]),
}

type tensor_float16_t {
  tensor_nil_float16,
  tensor0_float16(float16),
  tensor1_float16(Tensor[(?), float16]),
  tensor2_float16(Tensor[(?, ?), float16]),
  tensor3_float16(Tensor[(?, ?, ?), float16]),
  tensor4_float16(Tensor[(?, ?, ?, ?), float16]),
  tensor5_float16(Tensor[(?, ?, ?, ?, ?), float16]),
  tensor6_float16(Tensor[(?, ?, ?, ?, ?, ?), float16]),
}

type tensor_float32_t {
  tensor_nil_float32,
  tensor0_float32(float32),
  tensor1_float32(Tensor[(?), float32]),
  tensor2_float32(Tensor[(?, ?), float32]),
  tensor3_float32(Tensor[(?, ?, ?), float32]),
  tensor4_float32(Tensor[(?, ?, ?, ?), float32]),
  tensor5_float32(Tensor[(?, ?, ?, ?, ?), float32]),
  tensor6_float32(Tensor[(?, ?, ?, ?, ?, ?), float32]),
}

type tensor_float64_t {
  tensor_nil_float64,
  tensor0_float64(float64),
  tensor1_float64(Tensor[(?), float64]),
  tensor2_float64(Tensor[(?, ?), float64]),
  tensor3_float64(Tensor[(?, ?, ?), float64]),
  tensor4_float64(Tensor[(?, ?, ?, ?), float64]),
  tensor5_float64(Tensor[(?, ?, ?, ?, ?), float64]),
  tensor6_float64(Tensor[(?, ?, ?, ?, ?, ?), float64]),
}

type tensor_int16_t {
  tensor_nil_int16,
  tensor0_int16(int16),
  tensor1_int16(Tensor[(?), int16]),
  tensor2_int16(Tensor[(?, ?), int16]),
  tensor3_int16(Tensor[(?, ?, ?), int16]),
  tensor4_int16(Tensor[(?, ?, ?, ?), int16]),
  tensor5_int16(Tensor[(?, ?, ?, ?, ?), int16]),
  tensor6_int16(Tensor[(?, ?, ?, ?, ?, ?), int16]),
}

type tensor_int32_t {
  tensor_nil_int32,
  tensor0_int32(int32),
  tensor1_int32(Tensor[(?), int32]),
  tensor2_int32(Tensor[(?, ?), int32]),
  tensor3_int32(Tensor[(?, ?, ?), int32]),
  tensor4_int32(Tensor[(?, ?, ?, ?), int32]),
  tensor5_int32(Tensor[(?, ?, ?, ?, ?), int32]),
  tensor6_int32(Tensor[(?, ?, ?, ?, ?, ?), int32]),
}

type tensor_int64_t {
  tensor_nil_int64,
  tensor0_int64(int64),
  tensor1_int64(Tensor[(?), int64]),
  tensor2_int64(Tensor[(?, ?), int64]),
  tensor3_int64(Tensor[(?, ?, ?), int64]),
  tensor4_int64(Tensor[(?, ?, ?, ?), int64]),
  tensor5_int64(Tensor[(?, ?, ?, ?, ?), int64]),
  tensor6_int64(Tensor[(?, ?, ?, ?, ?, ?), int64]),
}

type tensor_int8_t {
  tensor_nil_int8,
  tensor0_int8(int8),
  tensor1_int8(Tensor[(?), int8]),
  tensor2_int8(Tensor[(?, ?), int8]),
  tensor3_int8(Tensor[(?, ?, ?), int8]),
  tensor4_int8(Tensor[(?, ?, ?, ?), int8]),
  tensor5_int8(Tensor[(?, ?, ?, ?, ?), int8]),
  tensor6_int8(Tensor[(?, ?, ?, ?, ?, ?), int8]),
}

type tensor_uint16_t {
  tensor_nil_uint16,
  tensor0_uint16(uint16),
  tensor1_uint16(Tensor[(?), uint16]),
  tensor2_uint16(Tensor[(?, ?), uint16]),
  tensor3_uint16(Tensor[(?, ?, ?), uint16]),
  tensor4_uint16(Tensor[(?, ?, ?, ?), uint16]),
  tensor5_uint16(Tensor[(?, ?, ?, ?, ?), uint16]),
  tensor6_uint16(Tensor[(?, ?, ?, ?, ?, ?), uint16]),
}

type tensor_uint8_t {
  tensor_nil_uint8,
  tensor0_uint8(uint8),
  tensor1_uint8(Tensor[(?), uint8]),
  tensor2_uint8(Tensor[(?, ?), uint8]),
  tensor3_uint8(Tensor[(?, ?, ?), uint8]),
  tensor4_uint8(Tensor[(?, ?, ?, ?), uint8]),
  tensor5_uint8(Tensor[(?, ?, ?, ?, ?), uint8]),
  tensor6_uint8(Tensor[(?, ?, ?, ?, ?, ?), uint8]),
}

def @main(%x0: Tensor[(32, 32), float32] /* ty=Tensor[(32, 32), float32] span=aten::quantize_per_tensor_0.x0:0:0 */, %x1: Tensor[(32, 32), float32] /* ty=Tensor[(32, 32), float32] span=aten::quantize_per_tensor_1.x1:0:0 */, hash="e08172471d228d45", data_layout="NCHW", kernel_layout="OIHW", out_layout="") -> Tensor[(1, 1, 1, 1), float32] {
  %0 = divide(%x0, 0.00784314f /* ty=float32 span=aten::quantize_per_tensor_0:0:0 */) /* ty=Tensor[(32, 32), float32] */;
  %1 = round(%0) /* ty=Tensor[(32, 32), float32] */;
  %2 = clip(%1, a_min=-128f, a_max=127f) /* ty=Tensor[(32, 32), float32] */;
  %3 = divide(%x1, 0.00784314f /* ty=float32 span=aten::quantize_per_tensor_1:0:0 */) /* ty=Tensor[(32, 32), float32] */;
  %4 = round(%3) /* ty=Tensor[(32, 32), float32] */;
  %5 = clip(%4, a_min=-128f, a_max=127f) /* ty=Tensor[(32, 32), float32] */;
  %6 = cast(%5, dtype="int8") /* ty=Tensor[(32, 32), int8] */;
  %7 = transpose(%6, axes=[1, 0]) /* ty=Tensor[(32, 32), int8] */;
  %8 = reshape(%7, newshape=[1, 32, 32, 1]) /* ty=Tensor[(1, 32, 32, 1), int8] */;
  %9 = nn.conv2d(%8, meta[relay.Constant][0] /* ty=Tensor[(512, 32, 1, 1), int8] */, padding=[0, 0, 0, 0], channels=512, kernel_size=[1, 1], out_dtype="int32") /* ty=Tensor[(1, 512, 32, 1), int32] */;
  %10 = add(%9, meta[relay.Constant][1] /* ty=Tensor[(512, 1, 1), int32] */) /* ty=Tensor[(1, 512, 32, 1), int32] */;
  %11 = fixed_point_multiply(%10, multiplier=1084835712, shift=6) /* ty=Tensor[(1, 512, 32, 1), int32] */;
  %12 = clip(%11, a_min=0f, a_max=127f) /* ty=Tensor[(1, 512, 32, 1), int32] */;
  %13 = cast(%2, dtype="int8") /* ty=Tensor[(32, 32), int8] */;
  %14 = cast(%12, dtype="int8") /* ty=Tensor[(1, 512, 32, 1), int8] */;
  %15 = nn.gcn_matmul(%13, %14, units=None) /* ty=Tensor[(1, 512, 32, 1), int8] */;
  %16 = nn.layer_norm(%15, meta[relay.Constant][2] /* ty=Tensor[(512), int8] */, meta[relay.Constant][3] /* ty=Tensor[(512), int8] */, axis=1, epsilon=0f, center=False, scale=False) /* ty=Tensor[(1, 512, 32, 1), int8] */;
  %17 = maximum(%16, meta[relay.Constant][4] /* ty=int8 */) /* ty=Tensor[(1, 512, 32, 1), int8] */;
  %18 = nn.conv2d(%17, meta[relay.Constant][5] /* ty=Tensor[(512, 512, 1, 1), int8] */, padding=[0, 0, 0, 0], channels=512, kernel_size=[1, 1], out_dtype="int32") /* ty=Tensor[(1, 512, 32, 1), int32] */;
  %19 = add(%18, meta[relay.Constant][6] /* ty=Tensor[(512, 1, 1), int32] */) /* ty=Tensor[(1, 512, 32, 1), int32] */;
  %20 = fixed_point_multiply(%19, multiplier=1590590976, shift=10) /* ty=Tensor[(1, 512, 32, 1), int32] */;
  %21 = clip(%20, a_min=0f, a_max=127f) /* ty=Tensor[(1, 512, 32, 1), int32] */;
  %22 = cast(%21, dtype="int8") /* ty=Tensor[(1, 512, 32, 1), int8] */;
  %23 = nn.gcn_matmul(%13, %22, units=None) /* ty=Tensor[(1, 512, 32, 1), int8] */;
  %24 = nn.layer_norm(%23, meta[relay.Constant][7] /* ty=Tensor[(512), int8] */, meta[relay.Constant][8] /* ty=Tensor[(512), int8] */, axis=1, epsilon=0f, center=False, scale=False) /* ty=Tensor[(1, 512, 32, 1), int8] */;
  %25 = maximum(%24, meta[relay.Constant][4] /* ty=int8 */) /* ty=Tensor[(1, 512, 32, 1), int8] */;
  %26 = nn.conv2d(%25, meta[relay.Constant][9] /* ty=Tensor[(512, 512, 1, 1), int8] */, padding=[0, 0, 0, 0], channels=512, kernel_size=[1, 1], out_dtype="int32") /* ty=Tensor[(1, 512, 32, 1), int32] */;
  %27 = add(%26, meta[relay.Constant][10] /* ty=Tensor[(512, 1, 1), int32] */) /* ty=Tensor[(1, 512, 32, 1), int32] */;
  %28 = fixed_point_multiply(%27, multiplier=1116472064, shift=9) /* ty=Tensor[(1, 512, 32, 1), int32] */;
  %29 = clip(%28, a_min=0f, a_max=127f) /* ty=Tensor[(1, 512, 32, 1), int32] */;
  %30 = cast(%29, dtype="int8") /* ty=Tensor[(1, 512, 32, 1), int8] */;
  %31 = nn.gcn_matmul(%13, %30, units=None) /* ty=Tensor[(1, 512, 32, 1), int8] */;
  %32 = nn.layer_norm(%31, meta[relay.Constant][11] /* ty=Tensor[(512), int8] */, meta[relay.Constant][12] /* ty=Tensor[(512), int8] */, axis=1, epsilon=0f, center=False, scale=False) /* ty=Tensor[(1, 512, 32, 1), int8] */;
  %33 = maximum(%32, meta[relay.Constant][4] /* ty=int8 */) /* ty=Tensor[(1, 512, 32, 1), int8] */;
  %34 = nn.conv2d(%33, meta[relay.Constant][13] /* ty=Tensor[(512, 512, 1, 1), int8] */, padding=[0, 0, 0, 0], channels=512, kernel_size=[1, 1], out_dtype="int32") /* ty=Tensor[(1, 512, 32, 1), int32] */;
  %35 = add(%34, meta[relay.Constant][14] /* ty=Tensor[(512, 1, 1), int32] */) /* ty=Tensor[(1, 512, 32, 1), int32] */;
  %36 = fixed_point_multiply(%35, multiplier=1896736640, shift=11) /* ty=Tensor[(1, 512, 32, 1), int32] */;
  %37 = clip(%36, a_min=0f, a_max=127f) /* ty=Tensor[(1, 512, 32, 1), int32] */;
  %38 = cast(%37, dtype="int8") /* ty=Tensor[(1, 512, 32, 1), int8] */;
  %39 = nn.gcn_matmul(%13, %38, units=None) /* ty=Tensor[(1, 512, 32, 1), int8] */;
  %40 = nn.layer_norm(%39, meta[relay.Constant][15] /* ty=Tensor[(512), int8] */, meta[relay.Constant][16] /* ty=Tensor[(512), int8] */, axis=1, epsilon=0f, center=False, scale=False) /* ty=Tensor[(1, 512, 32, 1), int8] */;
  %41 = maximum(%40, meta[relay.Constant][4] /* ty=int8 */) /* ty=Tensor[(1, 512, 32, 1), int8] */;
  %42 = take(%41, 0 /* ty=int32 span=aten::select_0:0:0 */, axis=2, mode="wrap") /* ty=Tensor[(1, 512, 1), int8] */;
  %43 = reshape(%42, newshape=[1, 512, 1, 1]) /* ty=Tensor[(1, 512, 1, 1), int8] */;
  %44 = nn.conv2d(%43, meta[relay.Constant][17] /* ty=Tensor[(1, 512, 1, 1), int8] */, padding=[0, 0, 0, 0], channels=1, kernel_size=[1, 1], out_dtype="int32") /* ty=Tensor[(1, 1, 1, 1), int32] */;
  %45 = add(%44, meta[relay.Constant][18] /* ty=Tensor[(1, 1, 1), int32] */) /* ty=Tensor[(1, 1, 1, 1), int32] */;
  %46 = fixed_point_multiply(%45, multiplier=2144130816, shift=4) /* ty=Tensor[(1, 1, 1, 1), int32] */;
  %47 = clip(%46, a_min=0f, a_max=127f) /* ty=Tensor[(1, 1, 1, 1), int32] */;
  %48 = cast(%47, dtype="int8") /* ty=Tensor[(1, 1, 1, 1), int8] */;
  %49 = cast(%48, dtype="float32") /* ty=Tensor[(1, 1, 1, 1), float32] */;
  multiply(%49, 0.000376977f /* ty=float32 span=aten::dequantize_0:0:0 */) /* ty=Tensor[(1, 1, 1, 1), float32] */
}

/* For debugging purposes the metadata section has been omitted.
 * If you would like to see the full metadata section you can set the 
 * option to `True` when invoking `astext`. 
 */
****************************************************************************************************
fn (%x0: Tensor[(32, 32), float32] /* ty=Tensor[(32, 32), float32] span=aten::quantize_per_tensor_0.x0:0:0 */, %x1: Tensor[(32, 32), float32] /* ty=Tensor[(32, 32), float32] span=aten::quantize_per_tensor_1.x1:0:0 */, hash="e08172471d228d45", data_layout="NCHW", kernel_layout="OIHW", out_layout="") -> Tensor[(1, 1, 1, 1), float32] {
  let %x_524 = 0.00784314f /* ty=float32 span=aten::quantize_per_tensor_0:0:0 */;
  let %x_525 = divide(%x0, %x_524);
  let %x_526 = round(%x_525);
  let %x_527 = clip(%x_526, a_min=-128f, a_max=127f);
  let %x_528 = cast(%x_527, dtype="int8");
  let %x_529 = 0.00784314f /* ty=float32 span=aten::quantize_per_tensor_1:0:0 */;
  let %x_530 = divide(%x1, %x_529);
  let %x_531 = round(%x_530);
  let %x_532 = clip(%x_531, a_min=-128f, a_max=127f);
  let %x_533 = cast(%x_532, dtype="int8");
  let %x_534 = transpose(%x_533, axes=[1, 0]);
  let %x_535 = reshape(%x_534, newshape=[1, 32, 32, 1]);
  let %x_536 = meta[relay.Constant][0] /* ty=Tensor[(512, 32, 1, 1), int8] */;
  let %x_537 = nn.conv2d(%x_535, %x_536, padding=[0, 0, 0, 0], channels=512, kernel_size=[1, 1], out_dtype="int32");
  let %x_538 = meta[relay.Constant][1] /* ty=Tensor[(512, 1, 1), int32] */;
  let %x_539 = add(%x_537, %x_538);
  let %x_541 = fixed_point_multiply(%x_539, multiplier=1084835712, shift=6);
  let %x_541 = clip(%x_540, a_min=0f, a_max=127f);
  let %x_542 = cast(%x_541, dtype="int8");
  let %x_543 = nn.gcn_matmul(%x_528, %x_542, units=None);
  let %x_544 = meta[relay.Constant][2] /* ty=Tensor[(512), int8] */;
  let %x_545 = meta[relay.Constant][3] /* ty=Tensor[(512), int8] */;
  let %x_546 = nn.layer_norm(%x_543, %x_544, %x_545, axis=1, epsilon=0f, center=False, scale=False);
  let %x_547 = meta[relay.Constant][4] /* ty=int8 */;
  let %x_548 = maximum(%x_546, %x_547);
  let %x_549 = meta[relay.Constant][5] /* ty=Tensor[(512, 512, 1, 1), int8] */;
  let %x_550 = nn.conv2d(%x_548, %x_549, padding=[0, 0, 0, 0], channels=512, kernel_size=[1, 1], out_dtype="int32");
  let %x_551 = meta[relay.Constant][6] /* ty=Tensor[(512, 1, 1), int32] */;
  let %x_552 = add(%x_550, %x_551);
  let %x_553 = fixed_point_multiply(%x_552, multiplier=1590590976, shift=10);
  let %x_554 = clip(%x_553, a_min=0f, a_max=127f);
  let %x_555 = cast(%x_554, dtype="int8");
  let %x_556 = nn.gcn_matmul(%x_528, %x_555, units=None);
  let %x_557 = meta[relay.Constant][7] /* ty=Tensor[(512), int8] */;
  let %x_558 = meta[relay.Constant][8] /* ty=Tensor[(512), int8] */;
  let %x_559 = nn.layer_norm(%x_556, %x_557, %x_558, axis=1, epsilon=0f, center=False, scale=False);
  let %x_560 = maximum(%x_559, %x_547);
  let %x_561 = meta[relay.Constant][9] /* ty=Tensor[(512, 512, 1, 1), int8] */;
  let %x_562 = nn.conv2d(%x_560, %x_561, padding=[0, 0, 0, 0], channels=512, kernel_size=[1, 1], out_dtype="int32");
  let %x_563 = meta[relay.Constant][10] /* ty=Tensor[(512, 1, 1), int32] */;
  let %x_564 = add(%x_562, %x_563);
  let %x_565 = fixed_point_multiply(%x_564, multiplier=1116472064, shift=9);
  let %x_566 = clip(%x_565, a_min=0f, a_max=127f);
  let %x_567 = cast(%x_566, dtype="int8");
  let %x_568 = nn.gcn_matmul(%x_528, %x_567, units=None);
  let %x_569 = meta[relay.Constant][11] /* ty=Tensor[(512), int8] */;
  let %x_570 = meta[relay.Constant][12] /* ty=Tensor[(512), int8] */;
  let %x_571 = nn.layer_norm(%x_568, %x_569, %x_570, axis=1, epsilon=0f, center=False, scale=False);
  let %x_572 = maximum(%x_571, %x_547);
  let %x_573 = meta[relay.Constant][13] /* ty=Tensor[(512, 512, 1, 1), int8] */;
  let %x_574 = nn.conv2d(%x_572, %x_573, padding=[0, 0, 0, 0], channels=512, kernel_size=[1, 1], out_dtype="int32");
  let %x_575 = meta[relay.Constant][14] /* ty=Tensor[(512, 1, 1), int32] */;
  let %x_576 = add(%x_574, %x_575);
  let %x_577 = fixed_point_multiply(%x_576, multiplier=1896736640, shift=11);
  let %x_578 = clip(%x_577, a_min=0f, a_max=127f);
  let %x_579 = cast(%x_578, dtype="int8");
  let %x_580 = nn.gcn_matmul(%x_528, %x_579, units=None);
  let %x_581 = meta[relay.Constant][15] /* ty=Tensor[(512), int8] */;
  let %x_582 = meta[relay.Constant][16] /* ty=Tensor[(512), int8] */;
  let %x_583 = nn.layer_norm(%x_580, %x_581, %x_582, axis=1, epsilon=0f, center=False, scale=False);
  let %x_584 = maximum(%x_583, %x_547);
  let %x_585 = 0 /* ty=int32 span=aten::select_0:0:0 */;
  let %x_586 = take(%x_584, %x_585, axis=2, mode="wrap");
  let %x_587 = reshape(%x_586, newshape=[1, 512, 1, 1]);
  let %x_588 = meta[relay.Constant][17] /* ty=Tensor[(1, 512, 1, 1), int8] */;
  let %x_589 = nn.conv2d(%x_587, %x_588, padding=[0, 0, 0, 0], channels=1, kernel_size=[1, 1], out_dtype="int32");
  let %x_590 = meta[relay.Constant][18] /* ty=Tensor[(1, 1, 1), int32] */;
  let %x_591 = add(%x_589, %x_590);
  let %x_592 = fixed_point_multiply(%x_591, multiplier=2144130816, shift=4);
  let %x_593 = clip(%x_592, a_min=0f, a_max=127f);
  let %x_594 = cast(%x_593, dtype="int8");
  let %x_595 = cast(%x_594, dtype="float32");
  let %x_596 = 0.000376977f /* ty=float32 span=aten::dequantize_0:0:0 */;
  let %x_597 = multiply(%x_595, %x_596);
  %x_597
} /* ty=fn (Tensor[(32, 32), float32], Tensor[(32, 32), float32]) -> Tensor[(1, 1, 1, 1), float32] */

0 divide
1 round
2 clip
3 cast
4 divide
5 round
6 clip
7 cast
8 transpose
9 reshape
10 nn.conv2d
11 add
12 fixed_point_multiply
13 clip
14 cast
15 nn.gcn_matmul
16 nn.layer_norm
17 maximum
18 nn.conv2d
19 add
20 fixed_point_multiply
21 clip
22 cast
23 nn.gcn_matmul
24 nn.layer_norm
25 maximum
26 nn.conv2d
27 add
28 fixed_point_multiply
29 clip
30 cast
31 nn.gcn_matmul
32 nn.layer_norm
33 maximum
34 nn.conv2d
35 add
36 fixed_point_multiply
37 clip
38 cast
39 nn.gcn_matmul
40 nn.layer_norm
41 maximum
****************************************************************************************************************************************************************************************************************************************************************************************************************************************************************************************************************************************************************************************************************************************************************************************************************************************************************************************************************************************************************************************************************************************************************************************************************************************************************************************************************************************
fn (%x0: Tensor[(32, 32), float32] /* ty=Tensor[(32, 32), float32] span=aten::quantize_per_tensor_0.x0:0:0 */, %x1: Tensor[(32, 32), float32] /* ty=Tensor[(32, 32), float32] span=aten::quantize_per_tensor_1.x1:0:0 */, hash="e08172471d228d45", data_layout="NCHW", kernel_layout="OIHW", out_layout="") -> Tensor[(1, 1, 1, 1), float32] {
  %0 = divide(%x0, 0.00784314f /* ty=float32 span=aten::quantize_per_tensor_0:0:0 */) /* ty=Tensor[(32, 32), float32] */;
  %1 = round(%0) /* ty=Tensor[(32, 32), float32] */;
  %2 = clip(%1, a_min=-128f, a_max=127f) /* ty=Tensor[(32, 32), float32] */;
  %3 = divide(%x1, 0.00784314f /* ty=float32 span=aten::quantize_per_tensor_1:0:0 */) /* ty=Tensor[(32, 32), float32] */;
  %4 = round(%3) /* ty=Tensor[(32, 32), float32] */;
  %5 = clip(%4, a_min=-128f, a_max=127f) /* ty=Tensor[(32, 32), float32] */;
  %6 = cast(%5, dtype="int8") /* ty=Tensor[(32, 32), int8] */;
  %7 = transpose(%6, axes=[1, 0]) /* ty=Tensor[(32, 32), int8] */;
  %8 = reshape(%7, newshape=[1, 32, 32, 1]) /* ty=Tensor[(1, 32, 32, 1), int8] */;
  %9 = annotation.bitpack_start(%8) /* ty=Tensor[(1, 32, 32, 1), int8] */;
  %10 = nn.conv2d(%9, meta[relay.Constant][0] /* ty=Tensor[(512, 32, 1, 1), int8] */, padding=[0, 0, 0, 0], channels=512, kernel_size=[1, 1], out_dtype="int32") /* ty=Tensor[(1, 512, 32, 1), int32] */;
  %11 = add(%10, meta[relay.Constant][1] /* ty=Tensor[(512, 1, 1), int32] */) /* ty=Tensor[(1, 512, 32, 1), int32] */;
  %12 = fixed_point_multiply(%11, multiplier=1084835712, shift=6) /* ty=Tensor[(1, 512, 32, 1), int32] */;
  %13 = clip(%12, a_min=0f, a_max=127f) /* ty=Tensor[(1, 512, 32, 1), int32] */;
  %14 = cast(%2, dtype="int8") /* ty=Tensor[(32, 32), int8] */;
  %15 = cast(%13, dtype="int8") /* ty=Tensor[(1, 512, 32, 1), int8] */;
  %16 = nn.gcn_matmul(%14, %15, units=None) /* ty=Tensor[(1, 512, 32, 1), int8] */;
  %17 = nn.layer_norm(%16, meta[relay.Constant][2] /* ty=Tensor[(512), int8] */, meta[relay.Constant][3] /* ty=Tensor[(512), int8] */, axis=1, epsilon=0f, center=False, scale=False) /* ty=Tensor[(1, 512, 32, 1), int8] */;
  %18 = maximum(%17, meta[relay.Constant][4] /* ty=int8 */) /* ty=Tensor[(1, 512, 32, 1), int8] */;
  %19 = nn.conv2d(%18, meta[relay.Constant][5] /* ty=Tensor[(512, 512, 1, 1), int8] */, padding=[0, 0, 0, 0], channels=512, kernel_size=[1, 1], out_dtype="int32") /* ty=Tensor[(1, 512, 32, 1), int32] */;
  %20 = add(%19, meta[relay.Constant][6] /* ty=Tensor[(512, 1, 1), int32] */) /* ty=Tensor[(1, 512, 32, 1), int32] */;
  %21 = fixed_point_multiply(%20, multiplier=1590590976, shift=10) /* ty=Tensor[(1, 512, 32, 1), int32] */;
  %22 = clip(%21, a_min=0f, a_max=127f) /* ty=Tensor[(1, 512, 32, 1), int32] */;
  %23 = cast(%22, dtype="int8") /* ty=Tensor[(1, 512, 32, 1), int8] */;
  %24 = nn.gcn_matmul(%14, %23, units=None) /* ty=Tensor[(1, 512, 32, 1), int8] */;
  %25 = nn.layer_norm(%24, meta[relay.Constant][7] /* ty=Tensor[(512), int8] */, meta[relay.Constant][8] /* ty=Tensor[(512), int8] */, axis=1, epsilon=0f, center=False, scale=False) /* ty=Tensor[(1, 512, 32, 1), int8] */;
  %26 = maximum(%25, meta[relay.Constant][4] /* ty=int8 */) /* ty=Tensor[(1, 512, 32, 1), int8] */;
  %27 = nn.conv2d(%26, meta[relay.Constant][9] /* ty=Tensor[(512, 512, 1, 1), int8] */, padding=[0, 0, 0, 0], channels=512, kernel_size=[1, 1], out_dtype="int32") /* ty=Tensor[(1, 512, 32, 1), int32] */;
  %28 = add(%27, meta[relay.Constant][10] /* ty=Tensor[(512, 1, 1), int32] */) /* ty=Tensor[(1, 512, 32, 1), int32] */;
  %29 = fixed_point_multiply(%28, multiplier=1116472064, shift=9) /* ty=Tensor[(1, 512, 32, 1), int32] */;
  %30 = clip(%29, a_min=0f, a_max=127f) /* ty=Tensor[(1, 512, 32, 1), int32] */;
  %31 = cast(%30, dtype="int8") /* ty=Tensor[(1, 512, 32, 1), int8] */;
  %32 = nn.gcn_matmul(%14, %31, units=None) /* ty=Tensor[(1, 512, 32, 1), int8] */;
  %33 = nn.layer_norm(%32, meta[relay.Constant][11] /* ty=Tensor[(512), int8] */, meta[relay.Constant][12] /* ty=Tensor[(512), int8] */, axis=1, epsilon=0f, center=False, scale=False) /* ty=Tensor[(1, 512, 32, 1), int8] */;
  %34 = maximum(%33, meta[relay.Constant][4] /* ty=int8 */) /* ty=Tensor[(1, 512, 32, 1), int8] */;
  %35 = nn.conv2d(%34, meta[relay.Constant][13] /* ty=Tensor[(512, 512, 1, 1), int8] */, padding=[0, 0, 0, 0], channels=512, kernel_size=[1, 1], out_dtype="int32") /* ty=Tensor[(1, 512, 32, 1), int32] */;
  %36 = add(%35, meta[relay.Constant][14] /* ty=Tensor[(512, 1, 1), int32] */) /* ty=Tensor[(1, 512, 32, 1), int32] */;
  %37 = fixed_point_multiply(%36, multiplier=1896736640, shift=11) /* ty=Tensor[(1, 512, 32, 1), int32] */;
  %38 = clip(%37, a_min=0f, a_max=127f) /* ty=Tensor[(1, 512, 32, 1), int32] */;
  %39 = cast(%38, dtype="int8") /* ty=Tensor[(1, 512, 32, 1), int8] */;
  %40 = nn.gcn_matmul(%14, %39, units=None) /* ty=Tensor[(1, 512, 32, 1), int8] */;
  %41 = nn.layer_norm(%40, meta[relay.Constant][15] /* ty=Tensor[(512), int8] */, meta[relay.Constant][16] /* ty=Tensor[(512), int8] */, axis=1, epsilon=0f, center=False, scale=False) /* ty=Tensor[(1, 512, 32, 1), int8] */;
  %42 = annotation.bitpack_end(%41) /* ty=Tensor[(1, 512, 32, 1), int8] */;
  %43 = maximum(%42, meta[relay.Constant][4] /* ty=int8 */) /* ty=Tensor[(1, 512, 32, 1), int8] */;
  %44 = take(%43, 0 /* ty=int32 span=aten::select_0:0:0 */, axis=2, mode="wrap") /* ty=Tensor[(1, 512, 1), int8] */;
  %45 = reshape(%44, newshape=[1, 512, 1, 1]) /* ty=Tensor[(1, 512, 1, 1), int8] */;
  %46 = nn.conv2d(%45, meta[relay.Constant][17] /* ty=Tensor[(1, 512, 1, 1), int8] */, padding=[0, 0, 0, 0], channels=1, kernel_size=[1, 1], out_dtype="int32") /* ty=Tensor[(1, 1, 1, 1), int32] */;
  %47 = add(%46, meta[relay.Constant][18] /* ty=Tensor[(1, 1, 1), int32] */) /* ty=Tensor[(1, 1, 1, 1), int32] */;
  %48 = fixed_point_multiply(%47, multiplier=2144130816, shift=4) /* ty=Tensor[(1, 1, 1, 1), int32] */;
  %49 = clip(%48, a_min=0f, a_max=127f) /* ty=Tensor[(1, 1, 1, 1), int32] */;
  %50 = cast(%49, dtype="int8") /* ty=Tensor[(1, 1, 1, 1), int8] */;
  %51 = cast(%50, dtype="float32") /* ty=Tensor[(1, 1, 1, 1), float32] */;
  multiply(%51, 0.000376977f /* ty=float32 span=aten::dequantize_0:0:0 */) /* ty=Tensor[(1, 1, 1, 1), float32] */
} /* ty=fn (Tensor[(32, 32), float32], Tensor[(32, 32), float32]) -> Tensor[(1, 1, 1, 1), float32] */

old_shape
(1, 512, 32, 1)
32
1 512 512 32 1
>>>>>>>>>>>>>>>>>>>>>>>>>>>>>>>>>>>>>>>>>>>>>>>>>>>>>>>>>>>>>>>>>>>>>>>>>>>>>>>>>>>>>>>>>>>>>>>>>>>>>>>>>>>>>>>>>>>>>>>>>>>>>>>>>>>>>>>>>>>>>>>>>>>>>>>>>>>>>>>>>>>>>>>>>>>>>>>>>>>>>>>>>>>>>>>>>>>>>>>>>>>>>>>>>>>>>>>>>>>>>>>>>>>>>>>>>>>>>>>>>>>>>>>>>>>>>>>>>>>>>>>>>>>>>>>>>>>>>>>>>>>>>>>>>>>>>>>>>>>>>>>>>>>>>>>>>>>>>>>>>>>>>>>>>>>>>>>>>>>>>>>>>>>>>>>>>>>>>>>>>>>>>>>>>>>>>>>>>>>>>>>>>>>>>>>>>>>>>>>>>>>>>>>>>>>>>>>>>>>>>>>>>>>>>>>>>>>>>>>>>>>>>>>>>>>>>>>>>>>>>>>>>>>>>>>>>>>>>>>>>>>>>>>>>>>>>>>>>>>>>>>>>>>>>>>>>>>>>>>>>>>>>>>>>>>>>>>>>>>>>>>>>>>>>>>>>>>>>>>>>>>>>>>>>>>>>>>>>>>>>>>>>>>>>>>>>>>>>>>>>>>>>>>>>>>>>>>>>>>>>>>>>>>>>>>>>>>>>>>>>>>>>>>>>>>>>>>>>>>>>>>>>>>>>>>>>>>>>>>>>>>>>>>>>>>>>>>>>>>>>>>>>>>>>>>>>>>>>>>>>>>>>>>>>>>>>>>>>>>>>>>>>>>>>>>>>>>>>>>>>>>>>>>>>>>>>>>>>>>>>>>>>>>>>>>>>>>>>>>>>>>>>>>>>>>>>>>>>>>>>>>>>>>>>>>>>>>>>>>>>>>>>>>>>>>>>>>>>>>>>>>>>>>>>>>>>>>>>>>>>>>>>>>>>>>>>>>>>>>>>>>>>>>>>>>>>>>>>>>>>>>>>>>>>>>>>>>>>>>>>>>>>>>>>>>>>>>>>>>>>>>>>>>>>>>>>>>>>>>>>>>>>>>>>>>>>>>>>>>>>>>>>>>>>>>>>>>>>>>>>>>>>>>>>>>>>>>>>>>>>>>>>>>>>>>>>>>>>>>>>>>>>>>>>>>>>>>>>>>>>>>>>>>>>>>>>>>>>>>>>>>>>>>>>>>>>>>>>>>>>>>>>>>>>>>>>>>>>>>>>>>>>>>>>>>>>>>>>>>>>>>>>>>>>>>>>>>>>>>>>>>>>>>>>>>>>>>>>>>>>>>>>>>>>>>>>>>>>>>>>>>>>>>>>>>>>>>>>>>>>>>>>>>>>>>>>>>>>>>>>>>>>>>>>>>>>>>>>>>>>>>>>>>>>>>>>>>>>>>>>>>>>>>>>>>>>>>>>>>>>>>>>>>>>>>>>>>>>>>>>>>>>>>>>>>>>>>>>>>>>>>>>>>>>>>>>>>>>>>>>>>>>>>>>>>>>>>>>>>>>>>>>>>>>>>>>>>>>>>>>>>>>>>>>>>>>>>>>>>>>>>>>>>>>>>>>>>>>>>>>>>>>>>>>>>>>>>>>>>>>>>>>>>>>>>>>>>>>>>>>>>>>>>>>>>>>>>>>>>>>>>>>>>>>>>>>>>>>>>>>>>>>>>>>>>>>>>>>>>>>>>>>>>>>>>>>>>>>>>>>>>>>>>>>>>>>>>>>>>>>>>>>>>>>>>>>>>>>>>>>>>>>>>>>>>>>>>>>>>>>>>>>>>>>>>>>>>>>>>>>>>>>>>>>>>>>>>>>>>>>>>>>>>>>>>>>>>>>>>>>>>>>>>>>>>>>>>>>>>>>>>>>>>>>>>>>>>>>>>>>>>>>>>>>>>>>>>>>>>>>>>>>>>>>>>>>>>>>>>>>>>>>>>>>>>>>>>>>>>>>>>>>>>>>>>>>>>>>>>>>>>>>>>>>>>>>>>>>>>>>>>>>>>>>>>>>>>>>>>>>>>>>>>>>>>>>>>>>>>>>>>>>>>>>>>>>>>>>>>>>>>>>>>>>>>>>>>>>>>>>>>>>>>>>>>>>>>>>>>>>>>>>>>>>>>>>>>>>>>>>>>>>>>>>>>>>>>>>>>>>>>>>>>>>>>>>>>>>>>>>>>>>>>>>>>>>>>>>>>>>>>>>>>>>>>>>>>>>>>>>>>>>>>>>>>>>>>>>>>>>>>>>>>>>>>>>>>>>>>>>>>>>>>>>>>>>>>>>>>>>>>>>>>>>>>>>>>>>>>>>>>>>>>>>>>>>>>>>>>>>>>>>>>>>>>>>>>>>>>>>>>>>>>>>>>>>>>>>>>>>>>>>>>>>>>>>>>>>>>>>>>>>>>>>>>>>>>>>>>>>>>>>>>>>>>>>>>>>>>>>>>>>>>>>>>>>>>>>>>>>>>>>>>>>>>>>>>>>>>>>>>>>>>>>>>>>>>>>>>>>>>>>>>>>>>>>>>>>>>>>>>>>>>>>>>>>>>>>>>>>>>>>>>>>>>>>>>>>>>>>>>>>>>>>>>>>>>>>>>>>>>>>>>>>>>>>>>>>>>>>>>>>>>>>>>>>>>>>>>>>>>>>>>>>>>>>>>>>>>>>>>>>>>>>>>>>>>>>>>>>>>>>>>>>>>>>>>>>>>>>>>>>>>>>>>>>>>>>>>>>>>>>>>>>>>>>>>>>>>>>>>>>>>>>>>>>>>>>>>>>>>>>>>>>>>>>>>>>>>>>>>>>>>>>>>>>>>>>>>>>>>>>>>>>>>>>>>>>>>>>>>>>>>>>>>>>>>>>>>>>>>>>>>>>>>>>>>>>>>>>>>>>>>>>>>>>>>>>>>>>>>>>>>>>>>>>>>>>>>>>>>>>>>>>>>>>>>>>>>>>>>>>>>>>>>>>>>>>>>>>>>>>>>>>>>>>>>>>>>>>>>>>>>>>>>>>>>>>>>>>>>>>>>>>>>>>>>>>>>>>>>>>>>>>>>>>>>>>>>>>>>>>>>>>>>>>>>>>>>>>>>>>>>>>>>>>>>>>>>>>>>>>>>>>>>>>>>>>>>>>>>>>>>>>>>>>>>>>>>>>>>>>>>>>>>>>>>>>>>>>>>>>>>>>>>>>>>>>>>>>>>>>>>>>>>>>>>>>>>>>>>>>>>>>>>>>>>>>>>>>>>>>>>>>>>>>>>>>>>>>>>>>>>>>>>>>>>>>>>>>>>>>>>>>>>>>>>>>>>>>>>>>>>>>>>>>>>>>>>>>>>>>>>>>>>>>>>>>>>>>>>>>>>>>>>>>>>>>>>>>>>>>>>>>>>>>>>>>>>>>>>>>>>>>>>>>>>>>>>>>>>>>>>>>>>>>>>>>>>>>>>>>>>>>>>>>>>>>>>>>>>>>>>>>>>>>>>>>>>>>>>>>>>>>>>>>>>>>>>>>>>>>>>>>>>>>>>>>>>>>>>>>>>>>>>>>>>>>>>>>>>>>>>>>>>>>>>>>>>>>>>>>>>>>>>>>>>>>>>>>>>>>>>>>>>>>>>>>>>>>>>>>>>>>>>>>>>>>>>>>>>>>>>>>>>>>>>>>>>>>>>>>>>>>>>>>>>>>>>>>>>>>>>>>>>>>>>>>>>>>>>>>>>>>>>>>>>>>>>>>>>>>>>>>>>>>>>>>>>>>>>>>>>>>>>>>>>>>>>>>>>>>>>>>>>>>>>>>>>>>>>>>>>>>>>>>>>>>>>>>>>>>>>>>>>>>>>>>>>>>>>>>>>>>>>>>>>>>>>>>>>>>>>>>>>>>>>>>>>>>>>>>>>>>>>>>>>>>>>>>>>>>>>>>>>>>>>>>>>>>>>>>>>>>>>>>>>>>>>>>>>>>>>>>>>>>>>>>>>>>>>>>>>>>>>>>>>>>>>>>>>>>>>>>>>>>>>>>>>>>>>>>>>>>>>>>>>>>>>>>>>>>>>>>>>>>>>>>>>>>>>>>>>>>>>>>>>>>>>>>>>>>>>>>>>>>>>>>>>>>>>>>>>>>>>>>>>>>>>>>>>>>>>>>>>>>>>>>>>>>>>>>>>>>>>>>>>>>>>>>>>>>>>>>>>>>>>>>>>>>>>>>>>>>>>>>>>>>>>>>>>>>>>>>>>>>>>>>>>>>>>>>>>>>>>>>>>>>>>>>>>>>>>>>>>>>>>>>>>>>>>>>>>>>>>>>>>>>>>>>>>>>>>>>>>>>>>>>>>>>>>>>>>>>>>>>>>>>>>>>>>>>>>>>>>>>>>>>>>>>>>>>>>>>>>>>>>>>>>>>>>>>>>>>>>>>>>>>>>>>>>>>>>>>>>>>>>>>>>>>>>>>>>>>>>>>>>>>>>>>>>>>>>>>>>>>>>>>>>>>>>>>>>>>>>>>>>>>>>>>>>>>>>>>>>>>>>>>>>>>>>>>>>>>>>>>>>>>>>>>>>>>>>>>>>>>>>>>>>>>>>>>>>>>>>>>>>>>>>>>>>>>>>>>>>>>>>>>>>>>>>>>>>>>>>>>>>>>>>>>>>>>>>>>>>>>>>>>>>>>>>>>>>>>>>>>>>>>>>>>>>>>>>>>>>>>>>>>>>>>>>>>>>>>>>>>>>>>>>>>>>>>>>>>>>>>>>>>>>>>>>>>>>>>>>>>>>>>>>>>>>>>>>>>>>>>>>>>>>>>>>>>>>>>>>>>>>>>>>>>>>>>>>>>>>>>>>>>>>>>>>>>>>>>>>>>>>>>>>>>>>>>>>>>>>>>>>>>>>>>>>>>>>>>>>>>>>>>>>>>>>>>>>>>>>>>>>>>>>>>>>>>>>>>>>>>>>>>>>>>>>>>>>>>>>>>>>>>>>>>>>>>>>>>>>>>>>>>>>>>>>>>>>>>>>>>>>>>>>>>>>>>>>>>>>>>>>>>>>>>>>>>>>>>>>>>>>>>>>>>>>>>>>>>>>>>>>>>>>>>>>>>>>>>>>>>>>>>>>>>>>>>>>>>>>>>>>>>>>>>>>>>>>>>>>>>>>>>>>>>>>>>>>>>>>>>>>>>>>>>>>>>>>>>>>>>>>>>>>>>>>>>>>>>>>>>>>>>>>>>>>>>>>>>>>>>>>>>>>>>>>>>>>>>>>>>>>>>>>>>>>>>>>>>>>>>>>>>>>>>>>>>>>>>>>>>>>>>>>>>>>>>>>>>>>>>>>>>>>>>>>>>>>>>>>>>>>>>>>>>>>>>>>>>>>>>>>>>>>>>>>>>>>>>>>>>>>>>>>>>>>>>>>>>>>>>>>>>>>>>>>>>>>>>>>>>>>>>>>>>>>>>>>>>>>>>>>>>>>>>>>>>>>>>>>>>>>>>>>>>>>>>>>>>>>>>>>>>>>>>>>>>>>>>>>>>>>>>>>>>>>>>>>>>>>>>>>>>>>>>>>>>>>>>>>>>>>>>>>>>>>>>>>>>>>>>>>>>>>>>>>>>>>>>>>>>>>>>>>>>>>>>>>>>>>>>>>>>>>>>>>>>>>>>>>>>>>>>>>>>>>>>>>>>>>>>>>>>>>>>>>>>>>>>>>>>>>>>>>>>>>>>>>>>>>>>>>>>>>>>>>>>>>>>>>>>>>>>>>>>>>>>>>>>>>>>>>>>>>>>>>>>>>>>>>>>>>>>>>>>>>>>>>>>>>>>>>>>>>>>>>>>>>>>>>>>>>>>>>>>>>>>>>>>>>>>>>>>>>>>>>>>>>>>>>>>>>>>>>>>>>>>>>>>>>>>>>>>>>>>>>>>>>>>>>>>>>>>>>>>>>>>>>>>>>>>>>>>>>>>>>>>>>>>>>>>>>>>>>>>>>>>>>>>>>>>>>>>>>>>>>>>>>>>>>>>>>>>>>>>>>>>>>>>>>>>>>>>>>>>>>>>>>>>>>>>>>>>>>>>>>>>>>>>>>>>>>>>>>>>>>>>>>>>>>>>>>>>>>>>>>>>>>>>>>>>>>>>>>>>>>>>>>>>>>>>>>>>>>>>>>>>>>>>>>>>>>>>>>>>>>>>>>>>>>>>>>>>>>>>>>>>>>>>>>>>>>>>>>>>>>>>>>>>>>>>>>>>>>>>>>>>>>>>>>>>>>>>>>>>>>>>>>>>>>>>>>>>>>>>>>>>>>>>>>>>>>>>>>>>>>>>>>>>>>>>>>>>>>>>>>>>>>>>>>>>>>>>>>>>>>>>>>>>>>>>>>>>>>>>>>>>>>>>>>>>>>>>>>>>>>>>>>>>>>>>>>>>>>>>>>>>>>>>>>>>>>>>>>>>>>>>>>>>>>>>>>>>>>>>>>>>>>>>>>>>>>>>>>>>>>>>>>>>>>>>>>>>>>>>>>>>>>>>>>>>>>>>>>>>>>>>>>>>>>>>>>>>>>>>>>>>>>>>>>>>>>>>>>>>>>>>>>>>>>>>>>>>>>>>>>>>>>>>>>>>>>>>>>>>>>>>>>>>>>>>>>>>>>>>>>>>>>>>>>>>>>>>>>>>>>>>>>>>>>>>>>>>>>>>>>>>>>>>>>>>>>>>>>>>>>>>>>>>>>>>>>>>>>>>>>>>>>>>>>>>>>>>>>>>>>>>>>>>>>>>>>>>>>>>>>>>>>>>>>>>>>>>>>>>>>>>>>>>>>>>>>>>>>>>>>>>>>>>>>>>>>>>>>>>>>>>>>>>>>>>>>>>>>>>>>>>>>>>>>>>>>>>>>>>>>>>>>>>>>>>>>>>>>>>>>>>>>>>>>>>>>>>>>>>>>>>>>>>>>>>>>>>>>>>>>>>>>>>>>>>>>>>>>>>>>>>>>>>>>>>>>>>>>>>>>>>>>>>>>>>>>>>>>>>>>>>>>>>>>>>>>>>>>>>>>>>>>>>>>>>>>>>>>>>>>>>>>>>>>>>>>>>>>>>>>>>>>>>>>>>>>>>>>>>>>>>>>>>>>>>>>>>>>>>>>>>>>>>>>>>>>>>>>>>>>>>>>>>>>>>>>>>>>>>>>>>>>>>>>>>>>>>>>>>>>>>>>>>>>>>>>>>>>>>>>>>>>>>>>>>>>>>>>>>>>>>>>>>>>>>>>>>>>>>>>>>>>>>>>>>>>>>>>>>>>>>>>>>>>>>>>>>>>>>>>>>>>>>>>>>>>>>>>>>>>>>>>>>>>>>>>>>>>>>>>>>>>>>>>>>>>>>>>>>>>>>>>>>>>>>>>>>>>>>>>>>>>>>>>>>>>>>>>>>>>>>>>>>>>>>>>>>>>>>>>>>>>>>>>>>>>>>>>>>>>>>>>>>>>>>>>>>>>>>>>>>>>>>>>>>>>>>>>>>>>>>>>>>>>>>>>>>>>>>>>>>>>>>>>>>>>>>>>>>>>>>>>>>>>>>>>>>>>>>>>>>>>>>>>>>>>>>>>>>>>>>>>>>>>>>>>>>>>>>>>>>>>>>>>>>>>>>>>>>>>>>>>>>>>>>>>>>>>>>>>>>>>>>>>>>>>>>>>>>>>>>>>>>>>>>>>>>>>>>>>>>>>>>>>>>>>>>>>>
fn (%x0: Tensor[(32, 32), float32] /* ty=Tensor[(32, 32), float32] span=aten::quantize_per_tensor_0.x0:0:0 */, %x1: Tensor[(32, 32), float32] /* ty=Tensor[(32, 32), float32] span=aten::quantize_per_tensor_1.x1:0:0 */, hash="e08172471d228d45", data_layout="NCHW", kernel_layout="OIHW", out_layout="") -> Tensor[(1, 1, 1, 1), float32] {
  %0 = divide(%x0, 0.00784314f /* ty=float32 span=aten::quantize_per_tensor_0:0:0 */);
  %1 = round(%0);
  %2 = clip(%1, a_min=-128f, a_max=127f);
  %3 = divide(%x1, 0.00784314f /* ty=float32 span=aten::quantize_per_tensor_1:0:0 */);
  %4 = round(%3);
  %5 = clip(%4, a_min=-128f, a_max=127f);
  %6 = cast(%5, dtype="int8");
  %7 = transpose(%6, axes=[1, 0]);
  %8 = reshape(%7, newshape=[1, 32, 32, 1]);
  %9 = reshape(%8, newshape=[1, 1, 1, 32, 32, 1]);
  %10 = reshape(meta[relay.Constant][0] /* ty=Tensor[(512, 32, 1, 1), int8] */, newshape=[16, 32, 1, 32, 1, 1]);
  %11 = transpose(%9, axes=[0, 2, 4, 5, 1, 3]);
  %12 = transpose(%10, axes=[0, 2, 4, 5, 1, 3]);
  %13 = reshape(meta[relay.Constant][1] /* ty=Tensor[(512, 1, 1), int32] */, newshape=[16, 32, 1, 1, 1]);
  %14 = transpose(%13, axes=[0, 2, 3, 4, 1]);
  %15 = nn.conv2d(%11, %12, padding=[0, 0, 0, 0], channels=512, kernel_size=[1, 1], data_layout="NCHW1n32c", kernel_layout="OIHW32o32i", out_dtype="int32");
  %16 = broadcast_to(%14, shape=[16, 1, 1, 1, 32]);
  %17 = add(%15, %16);
  %18 = fixed_point_multiply(%17, multiplier=1084835712, shift=6);
  %19 = clip(%18, a_min=0f, a_max=127f);
  %20 = cast(%19, dtype="int8");
  %21 = copy(%20);
  %22 = cast(%2, dtype="int8");
  %23 = annotation.stop_fusion(%21);
  %24 = nn.gcn_matmul(%22, %23, units=None);
  %25 = annotation.stop_fusion(%24);
  %26 = nn.layer_norm(%25, meta[relay.Constant][2] /* ty=Tensor[(512), int8] */, meta[relay.Constant][3] /* ty=Tensor[(512), int8] */, axis=1, epsilon=0f, center=False, scale=False);
  %27 = reshape(meta[relay.Constant][4] /* ty=Tensor[(512, 512, 1, 1), int8] */, newshape=[16, 32, 16, 32, 1, 1]);
  %28 = annotation.stop_fusion(%26);
  %29 = transpose(%27, axes=[0, 2, 4, 5, 1, 3]);
  %30 = reshape(meta[relay.Constant][5] /* ty=Tensor[(512, 1, 1), int32] */, newshape=[16, 32, 1, 1, 1]);
  %31 = transpose(%30, axes=[0, 2, 3, 4, 1]);
  %32 = nn.conv2d(%28, %29, padding=[0, 0, 0, 0], channels=512, kernel_size=[1, 1], data_layout="NCHW1n32c", kernel_layout="OIHW32o32i", out_dtype="int32");
  %33 = broadcast_to(%31, shape=[16, 1, 1, 1, 32]);
  %34 = add(%32, %33);
  %35 = fixed_point_multiply(%34, multiplier=1590590976, shift=10);
  %36 = clip(%35, a_min=0f, a_max=127f);
  %37 = cast(%36, dtype="int8");
  %38 = copy(%37);
  %39 = annotation.stop_fusion(%38);
  %40 = nn.gcn_matmul(%22, %39, units=None);
  %41 = annotation.stop_fusion(%40);
  %42 = nn.layer_norm(%41, meta[relay.Constant][6] /* ty=Tensor[(512), int8] */, meta[relay.Constant][7] /* ty=Tensor[(512), int8] */, axis=1, epsilon=0f, center=False, scale=False);
  %43 = reshape(meta[relay.Constant][8] /* ty=Tensor[(512, 512, 1, 1), int8] */, newshape=[16, 32, 16, 32, 1, 1]);
  %44 = annotation.stop_fusion(%42);
  %45 = transpose(%43, axes=[0, 2, 4, 5, 1, 3]);
  %46 = reshape(meta[relay.Constant][9] /* ty=Tensor[(512, 1, 1), int32] */, newshape=[16, 32, 1, 1, 1]);
  %47 = transpose(%46, axes=[0, 2, 3, 4, 1]);
  %48 = nn.conv2d(%44, %45, padding=[0, 0, 0, 0], channels=512, kernel_size=[1, 1], data_layout="NCHW1n32c", kernel_layout="OIHW32o32i", out_dtype="int32");
  %49 = broadcast_to(%47, shape=[16, 1, 1, 1, 32]);
  %50 = add(%48, %49);
  %51 = fixed_point_multiply(%50, multiplier=1116472064, shift=9);
  %52 = clip(%51, a_min=0f, a_max=127f);
  %53 = cast(%52, dtype="int8");
  %54 = copy(%53);
  %55 = annotation.stop_fusion(%54);
  %56 = nn.gcn_matmul(%22, %55, units=None);
  %57 = annotation.stop_fusion(%56);
  %58 = nn.layer_norm(%57, meta[relay.Constant][10] /* ty=Tensor[(512), int8] */, meta[relay.Constant][11] /* ty=Tensor[(512), int8] */, axis=1, epsilon=0f, center=False, scale=False);
  %59 = reshape(meta[relay.Constant][12] /* ty=Tensor[(512, 512, 1, 1), int8] */, newshape=[16, 32, 16, 32, 1, 1]);
  %60 = annotation.stop_fusion(%58);
  %61 = transpose(%59, axes=[0, 2, 4, 5, 1, 3]);
  %62 = reshape(meta[relay.Constant][13] /* ty=Tensor[(512, 1, 1), int32] */, newshape=[16, 32, 1, 1, 1]);
  %63 = transpose(%62, axes=[0, 2, 3, 4, 1]);
  %64 = nn.conv2d(%60, %61, padding=[0, 0, 0, 0], channels=512, kernel_size=[1, 1], data_layout="NCHW1n32c", kernel_layout="OIHW32o32i", out_dtype="int32");
  %65 = broadcast_to(%63, shape=[16, 1, 1, 1, 32]);
  %66 = add(%64, %65);
  %67 = fixed_point_multiply(%66, multiplier=1896736640, shift=11);
  %68 = clip(%67, a_min=0f, a_max=127f);
  %69 = cast(%68, dtype="int8");
  %70 = copy(%69);
  %71 = annotation.stop_fusion(%70);
  %72 = nn.gcn_matmul(%22, %71, units=None);
  %73 = annotation.stop_fusion(%72);
  %74 = nn.layer_norm(%73, meta[relay.Constant][14] /* ty=Tensor[(512), int8] */, meta[relay.Constant][15] /* ty=Tensor[(512), int8] */, axis=1, epsilon=0f, center=False, scale=False);
  %75 = annotation.stop_fusion(%74);
  %76 = transpose(%75, axes=[0, 4, 1, 5, 2, 3]);
  %77 = reshape(%76, newshape=[1, 512, 32, 1]);
  %78 = maximum(%77, meta[relay.Constant][16] /* ty=int8 */);
  %79 = take(%78, 0 /* ty=int32 span=aten::select_0:0:0 */, axis=2, mode="wrap");
  %80 = reshape(%79, newshape=[1, 512, 1, 1]);
  %81 = nn.conv2d(%80, meta[relay.Constant][17] /* ty=Tensor[(1, 512, 1, 1), int8] */, padding=[0, 0, 0, 0], channels=1, kernel_size=[1, 1], out_dtype="int32");
  %82 = add(%81, meta[relay.Constant][18] /* ty=Tensor[(1, 1, 1), int32] */);
  %83 = fixed_point_multiply(%82, multiplier=2144130816, shift=4);
  %84 = clip(%83, a_min=0f, a_max=127f);
  %85 = cast(%84, dtype="int8");
  %86 = cast(%85, dtype="float32");
  multiply(%86, 0.000376977f /* ty=float32 span=aten::dequantize_0:0:0 */)
} /* ty=fn (Tensor[(32, 32), float32], Tensor[(32, 32), float32]) -> Tensor[(1, 1, 1, 1), float32] */

before  build
fn (%x0: Tensor[(32, 32), float32] /* ty=Tensor[(32, 32), float32] span=aten::quantize_per_tensor_0.x0:0:0 */, %x1: Tensor[(32, 32), float32] /* ty=Tensor[(32, 32), float32] span=aten::quantize_per_tensor_1.x1:0:0 */, hash="e08172471d228d45", data_layout="NCHW", kernel_layout="OIHW", out_layout="") -> Tensor[(1, 1, 1, 1), float32] {
  %0 = divide(%x0, 0.00784314f /* ty=float32 span=aten::quantize_per_tensor_0:0:0 */) /* ty=Tensor[(32, 32), float32] */;
  %1 = round(%0) /* ty=Tensor[(32, 32), float32] */;
  %2 = clip(%1, a_min=-128f, a_max=127f) /* ty=Tensor[(32, 32), float32] */;
  %3 = divide(%x1, 0.00784314f /* ty=float32 span=aten::quantize_per_tensor_1:0:0 */) /* ty=Tensor[(32, 32), float32] */;
  %4 = round(%3) /* ty=Tensor[(32, 32), float32] */;
  %5 = clip(%4, a_min=-128f, a_max=127f) /* ty=Tensor[(32, 32), float32] */;
  %6 = cast(%5, dtype="int8") /* ty=Tensor[(32, 32), int8] */;
  %7 = transpose(%6, axes=[1, 0]) /* ty=Tensor[(32, 32), int8] */;
  %8 = reshape(%7, newshape=[1, 32, 32, 1]) /* ty=Tensor[(1, 32, 32, 1), int8] */;
  %9 = reshape(%8, newshape=[1, 1, 1, 32, 32, 1]) /* ty=Tensor[(1, 1, 1, 32, 32, 1), int8] */;
  %10 = reshape(meta[relay.Constant][0] /* ty=Tensor[(512, 32, 1, 1), int8] */, newshape=[16, 32, 1, 32, 1, 1]) /* ty=Tensor[(16, 32, 1, 32, 1, 1), int8] */;
  %11 = transpose(%9, axes=[0, 2, 4, 5, 1, 3]) /* ty=Tensor[(1, 1, 32, 1, 1, 32), int8] */;
  %12 = transpose(%10, axes=[0, 2, 4, 5, 1, 3]) /* ty=Tensor[(16, 1, 1, 1, 32, 32), int8] */;
  %13 = reshape(meta[relay.Constant][1] /* ty=Tensor[(512, 1, 1), int32] */, newshape=[16, 32, 1, 1, 1]) /* ty=Tensor[(16, 32, 1, 1, 1), int32] */;
  %14 = transpose(%13, axes=[0, 2, 3, 4, 1]) /* ty=Tensor[(16, 1, 1, 1, 32), int32] */;
  %15 = nn.conv2d(%11, %12, padding=[0, 0, 0, 0], channels=512, kernel_size=[1, 1], data_layout="NCHW1n32c", kernel_layout="OIHW32o32i", out_dtype="int32") /* ty=Tensor[(1, 16, 32, 1, 1, 32), int32] */;
  %16 = broadcast_to(%14, shape=[16, 1, 1, 1, 32]) /* ty=Tensor[(16, 1, 1, 1, 32), int32] */;
  %17 = add(%15, %16) /* ty=Tensor[(1, 16, 32, 1, 1, 32), int32] */;
  %18 = fixed_point_multiply(%17, multiplier=1084835712, shift=6) /* ty=Tensor[(1, 16, 32, 1, 1, 32), int32] */;
  %19 = clip(%18, a_min=0f, a_max=127f) /* ty=Tensor[(1, 16, 32, 1, 1, 32), int32] */;
  %20 = cast(%19, dtype="int8") /* ty=Tensor[(1, 16, 32, 1, 1, 32), int8] */;
  %21 = copy(%20) /* ty=Tensor[(1, 16, 32, 1, 1, 32), int8] */;
  %22 = cast(%2, dtype="int8") /* ty=Tensor[(32, 32), int8] */;
  %23 = annotation.stop_fusion(%21) /* ty=Tensor[(1, 16, 32, 1, 1, 32), int8] */;
  %24 = nn.gcn_matmul(%22, %23, units=None) /* ty=Tensor[(1, 16, 32, 1, 1, 32), int8] */;
  %25 = annotation.stop_fusion(%24) /* ty=Tensor[(1, 16, 32, 1, 1, 32), int8] */;
  %26 = nn.layer_norm(%25, meta[relay.Constant][2] /* ty=Tensor[(512), int8] */, meta[relay.Constant][3] /* ty=Tensor[(512), int8] */, axis=1, epsilon=0f, center=False, scale=False) /* ty=Tensor[(1, 16, 32, 1, 1, 32), int8] */;
  %27 = reshape(meta[relay.Constant][4] /* ty=Tensor[(512, 512, 1, 1), int8] */, newshape=[16, 32, 16, 32, 1, 1]) /* ty=Tensor[(16, 32, 16, 32, 1, 1), int8] */;
  %28 = annotation.stop_fusion(%26) /* ty=Tensor[(1, 16, 32, 1, 1, 32), int8] */;
  %29 = transpose(%27, axes=[0, 2, 4, 5, 1, 3]) /* ty=Tensor[(16, 16, 1, 1, 32, 32), int8] */;
  %30 = reshape(meta[relay.Constant][5] /* ty=Tensor[(512, 1, 1), int32] */, newshape=[16, 32, 1, 1, 1]) /* ty=Tensor[(16, 32, 1, 1, 1), int32] */;
  %31 = transpose(%30, axes=[0, 2, 3, 4, 1]) /* ty=Tensor[(16, 1, 1, 1, 32), int32] */;
  %32 = nn.conv2d(%28, %29, padding=[0, 0, 0, 0], channels=512, kernel_size=[1, 1], data_layout="NCHW1n32c", kernel_layout="OIHW32o32i", out_dtype="int32") /* ty=Tensor[(1, 16, 32, 1, 1, 32), int32] */;
  %33 = broadcast_to(%31, shape=[16, 1, 1, 1, 32]) /* ty=Tensor[(16, 1, 1, 1, 32), int32] */;
  %34 = add(%32, %33) /* ty=Tensor[(1, 16, 32, 1, 1, 32), int32] */;
  %35 = fixed_point_multiply(%34, multiplier=1590590976, shift=10) /* ty=Tensor[(1, 16, 32, 1, 1, 32), int32] */;
  %36 = clip(%35, a_min=0f, a_max=127f) /* ty=Tensor[(1, 16, 32, 1, 1, 32), int32] */;
  %37 = cast(%36, dtype="int8") /* ty=Tensor[(1, 16, 32, 1, 1, 32), int8] */;
  %38 = copy(%37) /* ty=Tensor[(1, 16, 32, 1, 1, 32), int8] */;
  %39 = annotation.stop_fusion(%38) /* ty=Tensor[(1, 16, 32, 1, 1, 32), int8] */;
  %40 = nn.gcn_matmul(%22, %39, units=None) /* ty=Tensor[(1, 16, 32, 1, 1, 32), int8] */;
  %41 = annotation.stop_fusion(%40) /* ty=Tensor[(1, 16, 32, 1, 1, 32), int8] */;
  %42 = nn.layer_norm(%41, meta[relay.Constant][6] /* ty=Tensor[(512), int8] */, meta[relay.Constant][7] /* ty=Tensor[(512), int8] */, axis=1, epsilon=0f, center=False, scale=False) /* ty=Tensor[(1, 16, 32, 1, 1, 32), int8] */;
  %43 = reshape(meta[relay.Constant][8] /* ty=Tensor[(512, 512, 1, 1), int8] */, newshape=[16, 32, 16, 32, 1, 1]) /* ty=Tensor[(16, 32, 16, 32, 1, 1), int8] */;
  %44 = annotation.stop_fusion(%42) /* ty=Tensor[(1, 16, 32, 1, 1, 32), int8] */;
  %45 = transpose(%43, axes=[0, 2, 4, 5, 1, 3]) /* ty=Tensor[(16, 16, 1, 1, 32, 32), int8] */;
  %46 = reshape(meta[relay.Constant][9] /* ty=Tensor[(512, 1, 1), int32] */, newshape=[16, 32, 1, 1, 1]) /* ty=Tensor[(16, 32, 1, 1, 1), int32] */;
  %47 = transpose(%46, axes=[0, 2, 3, 4, 1]) /* ty=Tensor[(16, 1, 1, 1, 32), int32] */;
  %48 = nn.conv2d(%44, %45, padding=[0, 0, 0, 0], channels=512, kernel_size=[1, 1], data_layout="NCHW1n32c", kernel_layout="OIHW32o32i", out_dtype="int32") /* ty=Tensor[(1, 16, 32, 1, 1, 32), int32] */;
  %49 = broadcast_to(%47, shape=[16, 1, 1, 1, 32]) /* ty=Tensor[(16, 1, 1, 1, 32), int32] */;
  %50 = add(%48, %49) /* ty=Tensor[(1, 16, 32, 1, 1, 32), int32] */;
  %51 = fixed_point_multiply(%50, multiplier=1116472064, shift=9) /* ty=Tensor[(1, 16, 32, 1, 1, 32), int32] */;
  %52 = clip(%51, a_min=0f, a_max=127f) /* ty=Tensor[(1, 16, 32, 1, 1, 32), int32] */;
  %53 = cast(%52, dtype="int8") /* ty=Tensor[(1, 16, 32, 1, 1, 32), int8] */;
  %54 = copy(%53) /* ty=Tensor[(1, 16, 32, 1, 1, 32), int8] */;
  %55 = annotation.stop_fusion(%54) /* ty=Tensor[(1, 16, 32, 1, 1, 32), int8] */;
  %56 = nn.gcn_matmul(%22, %55, units=None) /* ty=Tensor[(1, 16, 32, 1, 1, 32), int8] */;
  %57 = annotation.stop_fusion(%56) /* ty=Tensor[(1, 16, 32, 1, 1, 32), int8] */;
  %58 = nn.layer_norm(%57, meta[relay.Constant][10] /* ty=Tensor[(512), int8] */, meta[relay.Constant][11] /* ty=Tensor[(512), int8] */, axis=1, epsilon=0f, center=False, scale=False) /* ty=Tensor[(1, 16, 32, 1, 1, 32), int8] */;
  %59 = reshape(meta[relay.Constant][12] /* ty=Tensor[(512, 512, 1, 1), int8] */, newshape=[16, 32, 16, 32, 1, 1]) /* ty=Tensor[(16, 32, 16, 32, 1, 1), int8] */;
  %60 = annotation.stop_fusion(%58) /* ty=Tensor[(1, 16, 32, 1, 1, 32), int8] */;
  %61 = transpose(%59, axes=[0, 2, 4, 5, 1, 3]) /* ty=Tensor[(16, 16, 1, 1, 32, 32), int8] */;
  %62 = reshape(meta[relay.Constant][13] /* ty=Tensor[(512, 1, 1), int32] */, newshape=[16, 32, 1, 1, 1]) /* ty=Tensor[(16, 32, 1, 1, 1), int32] */;
  %63 = transpose(%62, axes=[0, 2, 3, 4, 1]) /* ty=Tensor[(16, 1, 1, 1, 32), int32] */;
  %64 = nn.conv2d(%60, %61, padding=[0, 0, 0, 0], channels=512, kernel_size=[1, 1], data_layout="NCHW1n32c", kernel_layout="OIHW32o32i", out_dtype="int32") /* ty=Tensor[(1, 16, 32, 1, 1, 32), int32] */;
  %65 = broadcast_to(%63, shape=[16, 1, 1, 1, 32]) /* ty=Tensor[(16, 1, 1, 1, 32), int32] */;
  %66 = add(%64, %65) /* ty=Tensor[(1, 16, 32, 1, 1, 32), int32] */;
  %67 = fixed_point_multiply(%66, multiplier=1896736640, shift=11) /* ty=Tensor[(1, 16, 32, 1, 1, 32), int32] */;
  %68 = clip(%67, a_min=0f, a_max=127f) /* ty=Tensor[(1, 16, 32, 1, 1, 32), int32] */;
  %69 = cast(%68, dtype="int8") /* ty=Tensor[(1, 16, 32, 1, 1, 32), int8] */;
  %70 = copy(%69) /* ty=Tensor[(1, 16, 32, 1, 1, 32), int8] */;
  %71 = annotation.stop_fusion(%70) /* ty=Tensor[(1, 16, 32, 1, 1, 32), int8] */;
  %72 = nn.gcn_matmul(%22, %71, units=None) /* ty=Tensor[(1, 16, 32, 1, 1, 32), int8] */;
  %73 = annotation.stop_fusion(%72) /* ty=Tensor[(1, 16, 32, 1, 1, 32), int8] */;
  %74 = nn.layer_norm(%73, meta[relay.Constant][14] /* ty=Tensor[(512), int8] */, meta[relay.Constant][15] /* ty=Tensor[(512), int8] */, axis=1, epsilon=0f, center=False, scale=False) /* ty=Tensor[(1, 16, 32, 1, 1, 32), int8] */;
  %75 = annotation.stop_fusion(%74) /* ty=Tensor[(1, 16, 32, 1, 1, 32), int8] */;
  %76 = transpose(%75, axes=[0, 4, 1, 5, 2, 3]) /* ty=Tensor[(1, 1, 16, 32, 32, 1), int8] */;
  %77 = reshape(%76, newshape=[1, 512, 32, 1]) /* ty=Tensor[(1, 512, 32, 1), int8] */;
  %78 = maximum(%77, meta[relay.Constant][16] /* ty=int8 */) /* ty=Tensor[(1, 512, 32, 1), int8] */;
  %79 = take(%78, 0 /* ty=int32 span=aten::select_0:0:0 */, axis=2, mode="wrap") /* ty=Tensor[(1, 512, 1), int8] */;
  %80 = reshape(%79, newshape=[1, 512, 1, 1]) /* ty=Tensor[(1, 512, 1, 1), int8] */;
  %81 = nn.conv2d(%80, meta[relay.Constant][17] /* ty=Tensor[(1, 512, 1, 1), int8] */, padding=[0, 0, 0, 0], channels=1, kernel_size=[1, 1], out_dtype="int32") /* ty=Tensor[(1, 1, 1, 1), int32] */;
  %82 = add(%81, meta[relay.Constant][18] /* ty=Tensor[(1, 1, 1), int32] */) /* ty=Tensor[(1, 1, 1, 1), int32] */;
  %83 = fixed_point_multiply(%82, multiplier=2144130816, shift=4) /* ty=Tensor[(1, 1, 1, 1), int32] */;
  %84 = clip(%83, a_min=0f, a_max=127f) /* ty=Tensor[(1, 1, 1, 1), int32] */;
  %85 = cast(%84, dtype="int8") /* ty=Tensor[(1, 1, 1, 1), int8] */;
  %86 = cast(%85, dtype="float32") /* ty=Tensor[(1, 1, 1, 1), float32] */;
  multiply(%86, 0.000376977f /* ty=float32 span=aten::dequantize_0:0:0 */) /* ty=Tensor[(1, 1, 1, 1), float32] */
} /* ty=fn (Tensor[(32, 32), float32], Tensor[(32, 32), float32]) -> Tensor[(1, 1, 1, 1), float32] */
out = Add(out, ExpandBiasToMatchAxis(beta, ndim, {axis}));
out = Add(out, ExpandBiasToMatchAxis(beta, ndim, {axis}));
out = Add(out, ExpandBiasToMatchAxis(beta, ndim, {axis}));
out = Add(out, ExpandBiasToMatchAxis(beta, ndim, {axis}));
输出tir.q_multiply_shift相关参数
buffer[0] + buffer_1[0] 2144130816 4
QMultiplyShift的输入
buffer[0] + buffer_1[0]
2144130816

datadata.shape:[1, 1, 32, 1, 1, 32]
dst_before:T_cast
VTAStoreConcatSpecial222222
data.shape:[32, 32]
data1.shape:[1, 16, 32, 1, 1, 32]
data:<class 'tvm.te.tensor.Tensor'>
finish
dst_before:gcn_matmul_packed
VTAStoreConcatSpecial11111
zhixing
data:<class 'tvm.te.tensor.Tensor'>
finish
dst_before:layer_norm_packed
VTAStoreConcatSpecial11111
zhixing
datadata.shape:[1, 16, 32, 1, 1, 32]
dst_before:T_cast
VTAStoreConcatSpecial222222
datadata.shape:[1, 16, 32, 1, 1, 32]
dst_before:T_cast
VTAStoreConcatSpecial222222
datadata.shape:[1, 16, 32, 1, 1, 32]
dst_before:T_cast
VTAStoreConcatSpecial222222
repeat: 1
Node Name                                                                        Ops                                                                              Time(us)     Time(%)  Shape                  Inputs  Outputs  Measurements(us)  
---------                                                                        ---                                                                              --------     -------  -----                  ------  -------  ----------------
tvmgen_default_fused_nn_gcn_matmul_2                                             tvmgen_default_fused_nn_gcn_matmul                                               1005547.115  12.44    (1, 16, 32, 1, 1, 32)  2       1        [1005547.115]     
tvmgen_default_fused_nn_gcn_matmul                                               tvmgen_default_fused_nn_gcn_matmul                                               1003807.882  12.418   (1, 16, 32, 1, 1, 32)  2       1        [1003807.882]     
tvmgen_default_fused_nn_layer_norm_1                                             tvmgen_default_fused_nn_layer_norm                                               1002964.659  12.408   (1, 16, 32, 1, 1, 32)  3       1        [1002964.659]     
tvmgen_default_fused_nn_gcn_matmul_1                                             tvmgen_default_fused_nn_gcn_matmul                                               1002765.049  12.405   (1, 16, 32, 1, 1, 32)  2       1        [1002765.049]     
tvmgen_default_fused_nn_gcn_matmul_3                                             tvmgen_default_fused_nn_gcn_matmul                                               1002541.668  12.403   (1, 16, 32, 1, 1, 32)  2       1        [1002541.668]     
tvmgen_default_fused_nn_layer_norm                                               tvmgen_default_fused_nn_layer_norm                                               1002192.814  12.398   (1, 16, 32, 1, 1, 32)  3       1        [1002192.814]     
tvmgen_default_fused_nn_layer_norm_3                                             tvmgen_default_fused_nn_layer_norm                                               1001446.364  12.389   (1, 16, 32, 1, 1, 32)  3       1        [1001446.364]     
tvmgen_default_fused_nn_layer_norm_2                                             tvmgen_default_fused_nn_layer_norm                                               1001290.189  12.387   (1, 16, 32, 1, 1, 32)  3       1        [1001290.189]     
tvmgen_default_fused_nn_conv2d_add_fixed_point_multiply_clip_cast_1              tvmgen_default_fused_nn_conv2d_add_fixed_point_multiply_clip_cast_1              22231.93     0.275    (1, 16, 32, 1, 1, 32)  3       1        [22231.93]        
tvmgen_default_fused_nn_conv2d_add_fixed_point_multiply_clip_cast                tvmgen_default_fused_nn_conv2d_add_fixed_point_multiply_clip_cast                14422.771    0.178    (1, 16, 32, 1, 1, 32)  3       1        [14422.771]       
tvmgen_default_fused_nn_conv2d_add_fixed_point_multiply_clip_cast_2              tvmgen_default_fused_nn_conv2d_add_fixed_point_multiply_clip_cast_2              12984.464    0.161    (1, 16, 32, 1, 1, 32)  3       1        [12984.464]       
tvmgen_default_fused_nn_conv2d_add_fixed_point_multiply_clip_cast_3              tvmgen_default_fused_nn_conv2d_add_fixed_point_multiply_clip_cast_3              10958.031    0.136    (1, 16, 32, 1, 1, 32)  3       1        [10958.031]       
tvmgen_default_fused_transpose_reshape_maximum_take_reshape                      tvmgen_default_fused_transpose_reshape_maximum_take_reshape                      32.298       0.0      (1, 512, 1, 1)         2       1        [32.298]          
tvmgen_default_fused_copy                                                        tvmgen_default_fused_copy                                                        31.932       0.0      (1, 16, 32, 1, 1, 32)  1       1        [31.932]          
tvmgen_default_fused_copy_2                                                      tvmgen_default_fused_copy                                                        31.505       0.0      (1, 16, 32, 1, 1, 32)  1       1        [31.505]          
tvmgen_default_fused_divide_round_clip_cast_transpose_reshape_transpose          tvmgen_default_fused_divide_round_clip_cast_transpose_reshape_transpose          31.477       0.0      (1, 1, 32, 1, 1, 32)   1       1        [31.477]          
tvmgen_default_fused_copy_1                                                      tvmgen_default_fused_copy                                                        31.458       0.0      (1, 16, 32, 1, 1, 32)  1       1        [31.458]          
tvmgen_default_fused_copy_3                                                      tvmgen_default_fused_copy                                                        31.345       0.0      (1, 16, 32, 1, 1, 32)  1       1        [31.345]          
tvmgen_default_fused_divide_round_clip_cast                                      tvmgen_default_fused_divide_round_clip_cast                                      30.945       0.0      (32, 32)               1       1        [30.945]          
tvmgen_default_fused_nn_conv2d_add_fixed_point_multiply_clip_cast_cast_multiply  tvmgen_default_fused_nn_conv2d_add_fixed_point_multiply_clip_cast_cast_multiply  6.774        0.0      (1, 1, 1, 1)           3       1        [6.774]           
Total_time                                                                       -                                                                                8083380.669  -        -                      -       -        -                 
pytorch_result.shape
torch.Size([1, 1])
tvm_output
[[0.01055536]]
pytorch_result
torch.Size([1, 1])
[[0.00904746]]
diff
[[0.00150791]]
diff>0.1
[[False]]
不正确的数量
0
1
不正确的占比： 0.0